discriminator_100_epochs.pth (torch, 404672 bytes, 3 tensors)

disc.0.weight f4 [128, 784]
000000 fe 30 09 3e 57 74 04 bc c4 97 18 3d 1e 6f 17 3e
       0.13397595 -0.008084378 0.03725411 0.14788482
000010 51 d4 90 3d 3b 09 f9 bc 1e 77 9b 3d 29 72 ad 3d
       0.07071746 -0.03039991 0.07591079 0.0846904
000020 58 b0 22 3e f6 be a1 ba 38 00 0e bc 84 0f 88 3d
       0.15887582 -0.0012340236 -0.008667044 0.06643584
000030 61 3c 7e bc f5 0c 03 3e 13 70 7c 3d 04 f8 92 3c
       -0.015517325 0.12797911 0.06163032 0.017940529
000040 a2 93 06 be 5f 90 64 3e ec da 7b 3d 09 2e a7 bd
       -0.13142255 0.22320698 0.061488077 -0.081630774
000050 40 13 dc b8 a5 4a bc 3d e8 42 f8 bc d4 e7 1e bd
       -0.00010494003 0.09193925 -0.03030534 -0.038795307
000060 18 c5 c6 3d b6 d4 e3 bc da a5 84 3d 37 f0 25 3c
       0.097055614 -0.02781139 0.06476946 0.010128072
000070 ff 15 d6 3d 4f ea 31 3d 16 f8 d4 bb ff bc 96 3d
       0.10453414 0.043436345 -0.0064993007 0.07360267
000080 97 d9 33 3e 6e 14 46 bc 17 d0 0d bd b3 e3 1c bc
       0.17563473 -0.012089832 -0.034622278 -0.009575772
000090 cd 0b 8a 3c d8 e4 b7 bc c9 08 fd 3c 6c 8d 9e bd
       0.01685133 -0.022447988 0.030887978 -0.07741818
0000a0 00 cc a4 bc 62 9a 4f 3d bb 80 8d 3b 86 80 9e 3d
       -0.020116806 0.05068434 0.0043183244 0.07739358
0000b0 5f 5b 68 bd e8 f6 18 3d 52 c5 42 3e ab 53 16 3d
       -0.056727763 0.037344843 0.19020584 0.036700886
0000c0 aa e4 7e 3d 48 fe 2c bd bd 48 43 bd 2f 4f 3a 3e
       0.06222979 -0.04223469 -0.04767679 0.18194269
0000d0 32 ff 83 3d 1d a9 66 3d 06 c4 8b bd 17 19 83 bd
       0.06445159 0.056313623 -0.06824498 -0.0640127
0000e0 75 04 7c 3d 52 e7 e4 3d ec a8 97 3c ee 30 b7 3d
       0.061527688 0.11176933 0.018513165 0.089448795
0000f0 71 c4 14 3e e3 9c 19 3d 36 71 31 bc cf ab 2d 3e
       0.14528061 0.037503134 -0.010830214 0.16960071
000100 af e9 05 3e 1b 1c 6c 3d e9 21 3d 3c 43 d1 78 bb
       0.13077424 0.05764399 0.011543729 -0.0037966527
000110 cd ea fc 3c ec fe 2f 3e 31 dd ac 3d 70 be f8 bd
       0.03087368 0.17187089 0.084406264 -0.12145698
000120 44 f2 5d 3e 77 41 b8 3d 8a a7 2d 3c 0a 39 bd 3d
       0.21674448 0.089968614 0.010599026 0.09239395
000130 03 19 7d 3d 61 bc 88 3d 62 10 b1 bc 67 cd 84 3d
       0.06179143 0.066765554 -0.021614257 0.0648449
000140 0a f4 2e 3e e1 29 66 bb 25 37 bc bb fa a4 34 3d
       0.17085281 -0.0035120177 -0.0057438784 0.044102646
000150 6c 86 cd bd c1 e0 12 3d 38 9d cb bd 3c c6 7d bc
       -0.100354046 0.035858873 -0.099420965 -0.015489157
000160 77 62 6c 3d b8 a9 32 3e dc 56 17 be d6 f8 e3 3d
       0.05771109 0.17447555 -0.14779228 0.11131446
000170 15 87 34 bc 05 77 6c 3d 65 ee 24 3e 07 ea cb 3d
       -0.011018534 0.057730693 0.16106565 0.099567465
000180 06 65 b7 3c d9 31 1c 3d a3 d0 20 3c ca d3 a1 b8
       0.022387039 0.038133476 0.009815368 -7.716527e-05
000190 8f 09 ec 3e 33 87 03 3e 2f bc 8a 3e ca 01 7c 3e
       0.46101043 0.12844543 0.27096698 0.24610057
0001a0 91 4e 21 3e a6 74 5d 3d b9 d0 00 3d 0b c7 46 3d
       0.15752627 0.054066323 0.031449053 0.048529666
0001b0 15 ce 82 3d a8 0b 30 be 07 21 b4 bd 8c d8 db 3d
       0.06386963 -0.17191947 -0.08795362 0.107346624
0001c0 33 f6 04 3d 9a 06 f3 bc 6f 47 c8 bd 04 60 ef bd
       0.032461356 -0.029666234 -0.0977925 -0.116882354
0001d0 a4 72 c8 bd 41 fa b5 3d 19 db 7e 3b 74 ed 80 3d
       -0.09787491 0.08885623 0.0038887917 0.062952906
0001e0 de bf 98 3d aa 6a fe 3d c0 6d ae 3d b1 51 dd 3d
       0.07458471 0.12422688 0.08517027 0.10806597
0001f0 5b 94 c3 bb 28 88 ec 3e 51 95 84 3e ba 38 20 be
       -0.005968613 0.4619763 0.2589517 -0.1564664
000200 7a 90 9d 3e fe 74 9f 3e 87 84 1b 3f 9f b7 99 be
       0.3077429 0.31143945 0.60749096 -0.30022904
000210 05 34 ca 3e 7c da 9c 3d d6 15 0d 3e 5c 9a 7a 3d
       0.39492813 0.0765886 0.13777861 0.061182365
000220 a7 a4 d2 bc e1 56 8e 3d 23 10 45 3d 42 d1 7b 3d
       -0.025713278 0.069501646 0.048111092 0.06147886
000230 be fe 08 3e 39 81 b4 bb d0 48 64 3d 4f 44 f4 bd
       0.13378426 -0.0055085686 0.055733502 -0.11927091
000240 a2 d6 96 3d 20 3a c3 bd 68 ff 21 3d 8b e7 39 3e
       0.07365157 -0.09532571 0.039550215 0.18154733
000250 a1 7b b7 bd 6e 04 2e 3e dc 27 bf bd 96 73 fc 3d
       -0.08959127 0.16993877 -0.093337744 0.12326734
000260 69 09 12 bd ed fb d3 be 61 29 bf 3e f5 f9 0f bd
       -0.035653505 -0.41403142 0.37336257 -0.035150487
000270 05 e6 22 3f 69 af fb 3d 78 1e bb 3d 61 66 40 3e
       0.6363223 0.12289316 0.09136671 0.18789054
000280 b3 79 43 bd ad 78 32 be f3 69 a3 3c 28 ee 9c 3e
       -0.047723483 -0.17428847 0.019947981 0.3065045
000290 f5 d9 23 3e 57 1d 6e 3d b8 d7 dd 3d 7d e7 86 3d
       0.16001113 0.05813345 0.10832161 0.06587122
0002a0 3a 68 90 bc ae ac a0 3c aa 18 ef 3c 36 68 68 3d
       -0.017627824 0.01961359 0.029186565 0.05674001
0002b0 da a7 18 3e 43 e2 23 bd 51 34 ac bc 26 1b 50 bd
       0.1490778 -0.040010702 -0.02102104 -0.05080714
0002c0 e8 67 61 be af 87 fc 3d 68 e5 cc bd b1 58 59 3c
       -0.22012293 0.12330567 -0.10004693 0.013265775
0002d0 f6 cd 39 3f b2 7b 0e bf 0d 68 1e 3f 9f 4c 1a 3e
       0.72579896 -0.55657494 0.6187752 0.15068291
0002e0 65 ae 82 be f6 9c f7 3e 23 e4 d1 bc f8 f5 52 3f
       -0.25523677 0.4836194 -0.02562148 0.8240657
0002f0 81 dc da be dc 2a 90 3e 4f d5 00 be 39 55 ce 3d
       -0.42746356 0.281577 -0.12581371 0.10074849
000300 10 4e 76 3e 89 85 13 3e 57 e3 8a 3c 07 fd 0d bd
       0.24053216 0.14406408 0.016954107 -0.034665134
000310 30 6a 02 bd 5e ae 0d 3d 43 d4 f4 bc fc 00 c7 3d
       -0.03183955 0.034590118 -0.02988637 0.09716985
000320 a0 00 00 bd c7 9b 9e 3e 58 0b 4e 3d ea 8d cc 3d
       -0.031250596 0.30978224 0.050303787 0.099880055
000330 33 6c 02 3e 35 21 b2 be ba 71 57 3e 07 79 9a be
       0.12736587 -0.3479096 0.21039477 -0.30170462
000340 d8 c4 bf bd 67 4d 5b 3f 7d cb 42 3e c6 6d 07 be
       -0.09363717 0.8566498 0.19022937 -0.13225469
000350 aa c2 95 3e 44 94 2e 3f e1 a6 cb be 09 03 87 3d
       0.2925008 0.68194985 -0.39775756 0.06592376
000360 5d ca 43 bd 7a 04 a7 3d 02 8f a2 3e 09 07 d6 3b
       -0.04780041 0.08155151 0.3174973 0.0065316004
000370 8d d3 be 3e 64 6b 2a bd 2f a8 8e 3c 18 5f f1 bd
       0.37270775 -0.041606322 0.01741418 -0.11785716
000380 84 14 a4 bd ef df d8 3d 04 e7 41 3e 1b 3d 06 bd
       -0.080117255 0.10589587 0.18935782 -0.03277312
000390 d4 e2 a2 3d c3 a9 18 3d 40 03 d8 3d 8d f0 42 be
       0.0795342 0.037271272 0.10547495 -0.19037075
0003a0 79 fd 88 3d c8 f9 15 be 41 f2 c2 3e 64 cc ab 3e
       0.06688971 -0.14646065 0.3807545 0.33554375
0003b0 85 4a a6 3e 4f d6 f3 be 54 c3 8a 3e 69 dc 92 be
       0.3247873 -0.47624442 0.2710215 -0.28683785
0003c0 6d df 16 3f b4 41 1f bf 82 d3 03 3f ab e0 86 bd
       0.5893467 -0.6220963 0.5149461 -0.06585821
0003d0 70 e4 f0 3e cc 77 f5 bd c8 5d 03 3e 02 36 34 3d
       0.47049284 -0.1198574 0.12828743 0.04399682
0003e0 91 9c aa 3e ce b6 6f 3e 66 a0 bc 3d fd c2 1c 3d
       0.33322576 0.23409578 0.09210281 0.038271893
0003f0 e4 ae b2 3c bd 1d 9e 3d 5f 48 56 3d ad ee fb bc
       0.02181191 0.07720516 0.052315112 -0.030753458

disc.0.bias f4 [128]
000000 44 44 2d 40 a4 d6 15 40 07 31 0c 40 4c fd 09 40
       2.7072916 2.3412256 2.1904924 2.156085
000010 b1 c5 eb 3f 50 74 43 c0 44 42 00 40 67 cc e0 be
       1.8419706 -3.0539742 2.0040445 -0.43905947
000020 09 7f 1b 40 42 00 75 3f 8c 70 ee 3e e2 80 01 c0
       2.4296286 0.9570352 0.4657024 -2.0234914
000030 ef bc f8 bf e0 9b 0f 40 6a be 1e c0 cf 8b 04 c0
       -1.9432658 2.2438889 -2.480372 -2.0710332
000040 72 81 82 40 e4 06 00 40 13 46 15 c0 f2 a5 7e 40
       4.0783014 2.0004206 -2.332402 3.9788785
000050 ae db e1 3e 60 9c 22 40 93 81 04 bf 70 9d bd 3f
       0.44112915 2.5407944 -0.51760215 1.4813671
000060 4a e5 f2 3f a4 81 24 40 ff 3e 26 40 e7 71 aa 3f
       1.8976223 2.5704126 2.597595 1.331601
000070 a0 ce 35 40 90 85 e0 3f 8f ca 09 40 99 f5 8a 3f
       2.8407364 1.754076 2.1529882 1.08562
000080 ca bc 4f 40 d2 fa 84 3f 7f 97 2c 40 02 fa 0c 3f
       3.2458978 1.0389044 2.6967466 0.5506898
000090 82 fd 1d 40 76 50 34 40 7c 2b 16 40 be 0a 18 40
       2.468598 2.817411 2.346404 2.3756557
0000a0 66 c3 62 40 5e f4 25 40 b0 6b 20 40 69 f0 b4 bf
       3.5431762 2.59304 2.5065727 -1.4135867
0000b0 19 8a 2f 40 6c 35 27 40 53 c2 11 c0 61 33 14 40
       2.7428038 2.6126356 -2.2774856 2.315636
0000c0 da dd 26 40 6d 55 04 40 00 ef 16 40 79 4e 5b 40
       2.6072907 2.067714 2.3583374 3.4266646
0000d0 6d e0 d9 3f eb e8 80 bf a5 b7 1a 40 51 65 af bf
       1.7021614 -1.0071081 2.4174588 -1.3702794
0000e0 e4 f4 bf 3f 37 25 02 40 74 97 89 c0 bc 0f 0c 40
       1.499661 2.0335214 -4.299738 2.1884604
0000f0 2a 7b bf bf 39 12 1c 40 cb 32 aa 3f 63 ed 16 40
       -1.4959462 2.4386122 1.3296751 2.358239
000100 63 f0 c0 bf ab 29 bb bf 85 37 af bf 04 83 22 40
       -1.507336 -1.4622091 -1.3688818 2.5392466
000110 77 67 0c 40 a9 88 ae bf 74 05 f2 3f 9f 50 67 40
       2.193815 -1.3635455 1.8907914 3.6142957
000120 d9 a0 0e 40 b5 42 0b 40 da 93 07 40 a1 27 06 40
       2.2285674 2.1759465 2.1183991 2.0961688
000130 96 a5 76 bf 6f 9d 03 40 5f 67 45 3e 24 2c 7c 3f
       -0.96346414 2.056484 0.19277714 0.98504853
000140 4c b2 fd 3f 04 20 fc bf ed 0f 26 40 e6 10 2a 40
       1.9820037 -1.969727 2.594722 2.6572814
000150 29 fd ed bf da 9b 1a 40 95 ae 17 c0 b6 7b 12 40
       -1.8592883 2.4157624 -2.3700306 2.2888007
000160 e6 b3 18 40 85 c9 c7 bf ef 8b 1f c0 1f 5f f7 bf
       2.3859801 -1.5608374 -2.4929159 -1.9325904
000170 f0 cc a7 3c 69 5a 2a 40 e1 84 1f 40 ff c1 21 40
       0.020483464 2.6617682 2.4924853 2.5274656
000180 cc 09 78 40 71 96 22 40 9a 9e 23 40 3d 41 2e 40
       3.875598 2.5404322 2.5565553 2.7227318
000190 07 79 23 40 b1 49 c0 3f b0 82 28 40 0d d8 15 40
       2.554262 1.5022489 2.6329765 2.3413117
0001a0 21 f6 10 40 30 28 6c c0 5b 9c 52 3e 28 ba 17 40
       2.2650225 -3.6899529 0.20567457 2.370737
0001b0 22 ac 9c be c8 e8 16 40 91 79 17 40 b4 d2 98 3f
       -0.30600077 2.3579578 2.3667948 1.1939301
0001c0 43 26 70 40 c5 ae fe bf 09 0f ca 3f 5b dd da 3f
       3.7523353 -1.9897085 1.5785838 1.7098802
0001d0 d9 be ca bf 81 02 2a c0 8d 75 2e 40 f4 2e 2a c0
       -1.5839492 -2.6564028 2.7259247 -2.6591158
0001e0 cd f8 13 40 1e bd fa 3e 11 59 11 40 76 b7 53 40
       2.3120606 0.4897241 2.2710612 3.3080726
0001f0 d1 ae 1c 40 ac f0 09 40 47 81 24 c0 96 82 e1 3f
       2.44817 2.1553144 -2.5703905 1.7617977

disc.2.weight f4 [1, 128]
000000 1a 15 7b bd 28 d9 92 bd 5f 9b 8d bd a6 eb 90 bd
       -0.06129942 -0.071703255 -0.069144 -0.07076196
000010 73 a4 9e bd a6 54 ef 3c 32 be c6 bd e9 7b a6 3e
       -0.0774621 0.029215168 -0.097042456 0.3251641
000020 b4 cb 9d bd da 64 94 bd 64 63 1e 3e e8 31 9f 3d
       -0.07704869 -0.072457984 0.15467602 0.07773191
000030 7e a2 f8 3d 31 38 89 bd 57 8e f8 3d 32 18 03 3e
       0.12140368 -0.06700171 0.12136524 0.12802199
000040 e6 79 0c be 1a b4 97 bd f3 93 95 3d 11 44 c3 bd
       -0.13718376 -0.074073985 0.0730361 -0.09534467
000050 f0 f8 14 3e 28 ce 83 bd a1 32 a8 3d 3b ed 6f bd
       0.14548087 -0.064358056 0.08212782 -0.05857585
000060 b1 8e 70 bd 95 82 4d bd 22 04 a1 bd af a2 85 3d
       -0.05872983 -0.05017336 -0.078621164 0.0652517
000070 77 4a 5e bc 20 20 89 bd e3 c7 b1 bd f6 76 b0 bd
       -0.0135675585 -0.066955805 -0.086807035 -0.0861644
000080 77 52 9a bc 76 2d 8b 3d da 9f 82 bd 34 fa 80 bd
       -0.01883815 0.0679578 -0.063781455 -0.062977225
000090 7a 8d 96 bd d0 35 85 bd c0 37 0b be 34 0b c0 bd
       -0.07351203 -0.065044045 -0.13595486 -0.09377137
0000a0 35 4f 6f bd 95 2d 18 be 6b 81 43 bd 0a 81 d7 3d
       -0.058425147 -0.14861138 -0.047730844 0.10522659
0000b0 a6 38 86 bd 03 01 79 bd 55 c7 a6 3d 1e c1 9a bd
       -0.065537736 -0.06079198 0.08143488 -0.075563654
0000c0 b3 6f 94 bd e0 4e b2 bd e1 c2 53 bd e9 01 4d bd
       -0.072478674 -0.087064505 -0.051699523 -0.05005065
0000d0 77 01 04 be 1a 39 da 3d d7 16 cd bd f1 56 f9 3d
       -0.12891184 0.106554225 -0.10014122 0.12174786
0000e0 3a f2 48 bd 82 9b 11 bd 43 10 a8 3d a9 49 2a be
       -0.04905913 -0.035548694 0.08206227 -0.16629662
0000f0 14 23 9a 3d e3 f5 35 be dd cd 3c bd fd 85 19 be
       0.07526222 -0.1776958 -0.046094764 -0.14992519
000100 f5 23 cc 3d de 70 07 3e d9 bd c6 3d 65 d7 9e bd
       0.09967796 0.13226649 0.09704179 -0.07755927
000110 ad cf 97 bd 3f fe fe 3d f4 f0 a0 bd 21 55 9f be
       -0.07412658 0.12450837 -0.07858458 -0.31119636
000120 15 dc ae bd fe 13 a9 bd c1 2a 22 be 3b ce 96 bd
       -0.08538071 -0.08255766 -0.15836622 -0.07363554
000130 48 8f 09 3e 59 b2 9f bd eb bb 2b be 0c 53 32 bd
       0.13433564 -0.07797689 -0.16770904 -0.04353623
000140 28 3f 7d bd 8f d8 2e 3e 78 b7 a8 bd 80 63 50 bd
       -0.06182781 0.17074798 -0.08238119 -0.05087614
000150 8f 9b 19 3e cb 97 51 bd d1 7c b6 3d 76 e3 4a bd
       0.15000747 -0.05117015 0.089105256 -0.04953333
000160 84 9a 96 bd 24 e4 ba 3d 65 a5 e7 3d d6 7c 9f 3d
       -0.0735369 0.091255456 0.113108434 0.077874824
000170 7a ac 5c 3d cb 07 7a bd c3 e0 a3 bd 52 ba 00 be
       0.053875424 -0.06104259 -0.08001854 -0.12571076
000180 f6 34 37 bd b5 8f c2 bd 47 8e 90 bd 75 20 0b be
       -0.04472824 -0.09500066 -0.07058387 -0.135866
000190 11 0f 7c bd 47 1f 87 bd d6 55 7c bd 94 de e6 bd
       -0.061537806 -0.065977626 -0.061605297 -0.11272922
0001a0 ca 9e 82 bd 71 f2 d2 3d b6 48 25 be 02 5a a2 bd
       -0.06377943 0.10300148 -0.16141018 -0.07927324
0001b0 0c 29 6c 3d 15 1d ad bd e7 ed 9b bd e3 7c c6 3d
       0.057656333 -0.084528126 -0.07613736 0.09691789
0001c0 d1 ae 1f bd 17 cd 0b 3e 9f 5a 88 bd 25 9f 9c bd
       -0.038985077 0.13652454 -0.066579096 -0.07647542
0001d0 7c 0c b4 3d 49 59 1e 3e 95 40 af bd 9b 50 a7 3d
       0.08791444 0.15463747 -0.0855724 0.08169671
0001e0 09 f0 e0 3d 1e dc 8f 3d 4a ae b3 bd bf 3f 73 bd
       0.10983283 0.07024406 -0.087734774 -0.059386965
0001f0 15 16 9c bd fe 5d 64 bd fe 8b 16 3e d3 ea 3a be
       -0.07621399 -0.0557537 0.1470184 -0.18253641
