discriminator_1_50_epochs.pth (torch, 404672 bytes, 3 tensors)

disc.0.weight f4 [128, 784]
00000000: 221f c3bb ed17 dcbc 6f90 ec3c 1d68 d63c
00000010: 2cba eb3c 9468 a33d 2b12 82bd dfe2 cf3b
00000020: 8c44 91bd a366 083d d93a 4abd f690 8abd
00000030: 9706 efbb 91cf f1bd 6a3d 61bd 16b9 8d3d
00000040: 8588 5ebd 3bfd 113d 43dd bcbc c44d 9f3d
00000050: b61b 283d ee4d 5ebd 8590 11bd 69ed 63bd
00000060: c2dd 503c 6425 e3bd 3d10 26bd ccd1 53bd
00000070: b994 60bc 1b52 a0bd b4bf d3bc ce0d 533c
00000080: d0f2 0a3d 5f22 68bc b84e 513d b07b 1fbc
00000090: b21a b4bd 37eb 9bbc db82 67bc f211 a63d
000000a0: 7c57 363e 15cb 433d 1ab2 ee3b 517a aa3c
000000b0: 3b0b 833d 3a4d 5ebd a066 833d 666c a53b
000000c0: e764 9abc 3ff4 61bd deff 0c3c 204e 3bbc
000000d0: 49e8 903c 3b97 cb3d 64cb 9cbc c40c 89bd
000000e0: 62c2 3dbd 9ee7 74bd 84f4 40bd d37a 92bc
000000f0: 75f4 a2bd 6ac8 34bc 221b a3bc c998 03bb
00000100: bc13 3c3b f8a1 2bbc b925 df3c d137 afbc
00000110: 7a99 903d 2a1a 013c 8c0d edbd f12d 353b
00000120: 872f 06bc 725c b13d 5087 19bd d273 e0bd
00000130: 4e1d 2b3e 473a cabd 8213 33bd 27df 80bd
00000140: 6f9f dabd 2833 ce3d 205b 15bc c773 00bd
00000150: 6195 1a3d 24a7 4a3d 5fbe a4bd e205 793c
00000160: 507c 53bb 47cf b13d a1ab a8bd ac9f 34bc
00000170: d979 4d3d 2ad7 20bd bc92 95bc 0a77 4539
00000180: 67da a5bd 0d41 2a3e a8d8 d4bd 89e6 c9bd
00000190: c5e9 953e 7741 2cbc ad5a cabc bb22 10be
000001a0: ec1b 79bc 75a7 173b f05e dfbd 7b53 94bd
000001b0: 2c09 e13d 168f 793b 1ed2 29bd 2ba4 53bd
000001c0: e4ee 153c 172e 89ba 897d 813d 0603 733c
000001d0: c809 9d3c 22af c9bb e063 7cbd 951e 24be
000001e0: b2af c53d 4f27 e2bb 5b52 b1bc 4834 8f3e
000001f0: fc3b 1abe cf20 65be 9c52 9f3d 6419 db3d
00000200: 9e94 95be 2bfd a73e 8261 033d 6dbf 3cbe
00000210: 8dae 463e 62bc 69be ecca 863d 4806 b0bc
00000220: 5d87 1fbd a76e 973d 392d 6dbd 626b cf3a
00000230: a198 5c3d 7c11 a53d dd35 a73b 3a42 64bc
00000240: d1fc a33d f6ee 983d 7ec2 143d dc8a f6bd
00000250: 8a8d 29bd 48b5 bcbd 6d6f a23e 9681 1bbe
00000260: 7763 bbbe f22f 013f 2b99 29bf 90b0 0e3f
00000270: 644f 81be aa1b c63d 95fc 9d3e c4ab 8ebe
00000280: 15f5 cbbd f481 e63d af55 81bd 96d1 2dbd
00000290: c21c cb3c 028c 9ebd f51a 313d 71a3 7d3c
000002a0: beea 1bb9 e089 63bb cd9f 96bc cd62 4e3d
000002b0: 4844 86bd 68ae 963c ae73 32bd 5ef8 243d
000002c0: 25c5 34be 6b29 03bd e4ac 4dbe e1dd d3bd
000002d0: 1013 ff3e 1515 dfbe 7abd 353e c3c0 35be
000002e0: 5950 083f 0b3d 01be ec07 e3be 645a abbd
000002f0: 14c4 1bbe 70e4 3ebe 745a 723d 765a 49bd
00000300: 16b6 ebbd e82e 293d 7808 f6bc 21ba 173d
00000310: 4074 3c3d 97ca d63b 5815 8dbb 66bc 2fbe
00000320: 77a9 193d bff4 f03c 93f9 2b3e f783 68bd
00000330: fd6b 643e 4ff4 b2be c9c3 8e3e aac0 31be
00000340: 808c f93d 85ac 063f 7799 bfbe 173c 97bd
00000350: 9d88 5d3e 007d adbd f795 8e3e 8ebe 0c3c
00000360: 4bcb 093e cab5 adbe 478d 983e a9b4 98be
00000370: 705c 913c 826f 913c 3fa5 babc 02d2 a83d
00000380: 2ec3 72bd 043c abba 7077 b0bd 86eb 3e3d
00000390: d5c7 d2bc 0db9 01bd 968a 63bd 7597 87be
000003a0: 8155 2e3d b323 8d3e d3f0 71be caf5 5abb
000003b0: 1110 2abf c2f7 b53c 978d a8bd 70b4 d93e
000003c0: d50f a4be 8183 563c 9a7c b2be 9344 883d
000003d0: 7aed edbe 34a0 06bd 2bec 24be e657 0fbe
000003e0: d6d2 4c3d 80cc 113e 9dd0 d2bd 2d5e 13bd
000003f0: 0f60 1c3d 2e66 303c 57b9 e03d 184c 333d
-0.005954639 -0.026866877 0.028877465 0.026172692 0.028775297 0.07978931 -0.063511215 0.006344184
-0.070931524 0.033301007 -0.049372528 -0.0676593 -0.0072944867 -0.11807168 -0.05499021 0.06920068
-0.054329414 0.03564189 -0.023054725 0.077785045 0.041042052 -0.05427354 -0.035538215 -0.055646334
0.012748184 -0.11091116 -0.04054283 -0.05171375 -0.013707333 -0.078281604 -0.025848247 0.012881709
0.03392297 -0.014168351 0.051100463 -0.009734079 -0.08794154 -0.019033058 -0.0141303195 0.081088915
0.1780681 0.047801096 0.007284415 0.020810278 0.063986264 -0.054272868 0.064160585 0.0050483225
-0.018846942 -0.05516457 0.008605925 -0.011432201 0.017688887 0.09940954 -0.019139953 -0.06691888
-0.046327956 -0.0597912 -0.04710819 -0.017880833 -0.07956783 -0.011034111 -0.019910399 -0.002008008
0.0028698286 -0.010475628 0.027239667 -0.02138892 0.07060523 0.007879773 -0.115748495 0.0027645791
-0.008190042 0.08660211 -0.03748256 -0.10959591 0.16710398 -0.09874397 -0.043719776 -0.06292563
-0.10674941 0.10068351 -0.009115964 -0.031360414 0.037740115 0.049475804 -0.08044123 0.0151991565
-0.003227014 0.08682113 -0.082358606 -0.011024397 0.05016503 -0.039267696 -0.018258445 0.0001883173
-0.080982976 0.16626377 -0.103928864 -0.09858424 0.29279914 -0.010513655 -0.02470144 -0.14075749
-0.015204411 0.0023140584 -0.1090678 -0.07242485 0.109880775 0.003807967 -0.04146015 -0.051670235
0.009151194 -0.0010466006 0.06322772 0.014832264 0.019169703 -0.0061549107 -0.061618686 -0.16027291
0.09652652 -0.0069016586 -0.021645715 0.27969575 -0.15061945 -0.22375797 0.07779428 0.10698202
-0.29214948 0.3281034 0.032075413 -0.18432398 0.19402523 -0.22825769 0.06581673 -0.02148737
-0.03894745 0.07394152 -0.057904456 0.0015824849 0.053856496 0.080599755 0.0051028566 -0.013931805
0.08007205 0.07467453 0.036318295 -0.12038204 -0.041394748 -0.09214264 0.31725636 -0.15186152
-0.36599323 0.50463784 -0.6624934 0.55738163 -0.25255883 0.09673245 0.30856767 -0.27865422
-0.09958855 0.11255255 -0.06315171 -0.042436205 0.024793986 -0.07741548 0.0432386 0.015480862
-0.000148694 -0.003471963 -0.018386746 0.050387193 -0.06555992 0.01839371 -0.043567352 0.040275924
-0.1765333 -0.03202192 -0.20085484 -0.103450544 0.4981923 -0.43570772 0.17748061 -0.17749314
0.532476 -0.12620942 -0.4434198 -0.0836685 -0.15211517 -0.1864183 0.059168294 -0.049158536
-0.115093395 0.0413045 -0.030033335 0.03704274 0.046009302 0.0065549123 -0.004305523 -0.17161712
0.03751513 0.029413579 0.16794424 -0.056766476 0.2230682 -0.34952018 0.27883747 -0.17358652
0.121850014 0.52606994 -0.37421772 -0.07384508 0.21634145 -0.084711075 0.2784879 0.008590354
0.13456456 -0.33927757 0.29795286 -0.29825333 0.017744273 0.017753366 -0.022783874 0.08243181
-0.05926817 -0.0013064151 -0.08616531 0.04661133 -0.025730053 -0.03167062 -0.055552088 -0.2648274
0.04256201 0.275663 -0.23627023 -0.0033410662 -0.66430765 0.022212867 -0.08230131 0.42520475
-0.3204333 0.013092876 -0.34860688 0.066537045 -0.46470243 -0.032867625 -0.16105716 -0.13998374
0.050005756 0.14238167 -0.10293696 -0.035978485 0.038177546 0.010766549 0.10972851 0.04377374

disc.0.bias f4 [128]
00000000: f2ec c63f c4d3 893f 1e09 d13f 0516 643e
00000010: c802 373f 470f 643f f23b 393e 48b4 18bf
00000020: 3a55 94bf 38b2 9b3f 1194 933f d6f5 cd3f
00000030: 5eef c23f 5b59 aa3f 3e93 ad3f f718 03bf
00000040: 34d6 a73f a4a1 d1bf ee1e 423f a53b 4b3f
00000050: 213b cb3e af54 c93f 811c b53f 73b6 e1bf
00000060: ddbb a13f 9834 813f 01ed 813f 2dee bb3f
00000070: b4af ac3e 89ba 093f da55 b13f 1738 733e
00000080: 75d2 1e3f 25f6 cd3f 65a7 8b3f 58eb 9a3f
00000090: 21fd 253e e6f9 893f a805 4b3f b7eb c93e
000000a0: eadd 35bf d030 7bbf 5e46 d43f 8bdf c23f
000000b0: 54d6 78bf 6a38 ce3f 5716 80bf ef7a b8bf
000000c0: 7675 08bf 4d22 ab3f ac58 d13f 339a 973e
000000d0: eda6 d63f 394c 8f3f 55e2 0dbf 5793 b13f
000000e0: 0d30 9e3f 3a19 e23f 358a c23f 237e a23f
000000f0: f3ea b73f 05d9 a03f 457f c93f ec44 cb3f
00000100: 8cc2 ca3f 2f3f 123f de36 c63f 13d6 9a3f
00000110: 453c ac3f 5605 373f e3e0 1ebd f38f f63e
00000120: 435f c73f f699 963f 786d 2e3e f785 e1be
00000130: e5d2 143f a1ad a43d 1cff a03f 5193 32bf
00000140: c8bb 5d3f 0bc1 833e 307a 873f 3a6e 8b3f
00000150: 705a cc3f b50f bc3f 7fae c43f 0363 9e3f
00000160: c242 8fbd 8015 323f 1691 78bf 7082 923f
00000170: 16da b4bf a348 1dbf ef5e b4bf 4217 dfbe
00000180: 689d b03f c1da 9e3f a8df 3d3f 0e1c 0e3e
00000190: e5f8 ff3f e341 9f3e ccd7 ccbf 1493 42bf
000001a0: c24c 9d3e f445 9a3f 215e d53f f68c 07bf
000001b0: 3a87 84bf bdc8 a83f e2ea 1a3f 6ced 853f
000001c0: 29ea da3e 78cb 60bf 0156 5c3f 4614 bd3f
000001d0: a331 913f 084e 55bf e877 ae3f eac4 8ebf
000001e0: e170 31bf bcae cebe 8f4c d3be d94f c83f
000001f0: 5b94 ca3f c43e d43f 26d7 d73f 7e46 d3bd
1.554106 1.0767751 1.6330907 0.22274025 0.7148862 0.8908581 0.18089274 -0.5965009
-1.1588509 1.2163763 1.1529561 1.6090648 1.5229299 1.3308519 1.356056 -0.5120997
1.3112245 -1.6377454 0.75828445 0.79387885 0.3969355 1.5728968 1.4149324 -1.7633804
1.2635456 1.0094175 1.0150453 1.468206 0.337278 0.53800255 1.3854325 0.23751865
0.6203988 1.6090742 1.091046 1.2103071 0.16209842 1.0779388 0.79305506 0.3943765
-0.7104174 -0.98121357 1.6583974 1.522447 -0.9720204 1.6110966 -1.0006818 -1.4412516
-0.5330423 1.3369843 1.6355186 0.29609832 1.6769692 1.1195136 -0.5542348 1.387309
1.2358414 1.7663949 1.5198427 1.2694744 1.4368576 1.2566229 1.5741965 1.5880408
1.5840621 0.5712766 1.5485494 1.209658 1.3455893 0.71492517 -0.038788687 0.481567
1.5575947 1.1765735 0.17033947 -0.4404752 0.581343 0.080409296 1.2577853 -0.69756037
0.86614656 0.25733218 1.0584164 1.0893013 1.5965099 1.4692293 1.5365752 1.2373966
-0.06995155 0.69564056 -0.97096384 1.1446056 -1.4129055 -0.6143896 -1.4091471 -0.43572432
1.3798037 1.2410508 0.741694 0.1387789 1.9997832 0.31104955 -1.6003356 -0.76005673
0.30722624 1.2052598 1.6669351 -0.52949464 -1.0353768 1.318626 0.6051465 1.046308
0.42756775 -0.8781047 0.8606873 1.4771812 1.1343273 -0.8332219 1.3630342 -1.1153843
-0.69312865 -0.40367687 -0.41269347 1.5649368 1.5826524 1.6581655 1.6862533 -0.1031618

disc.2.weight f4 [1, 128]
00000000: 382a 83bd e3e7 2a3c f262 b5bd dd2f 243d
00000010: 7246 b0bd 545e fabd 32c7 4c3d 621a 883d
00000020: b750 943d 7a22 a9bd b22e 1abd fdcb bdbd
00000030: a9d0 59bd f5ac c6bd a40c 7cbd ba75 02be
00000040: fe36 b9bd b82f 963d 5c24 7ebc fbf8 b8bd
00000050: 04b3 95bd f576 d1bc 9d2e a7bd 01f5 9c3d
00000060: 9146 f8bc 6ee4 133d 3df4 56bd e726 c5bc
00000070: 6e7c 18bb 032b d0bd 7d4d d3bd 218d a9bd
00000080: 71c6 763d 0bae b1bd c39a 50bd a2b4 b8bd
00000090: 837d 0abd 6c6f 4f3d 9e22 43bd 14e9 9bbc
000000a0: 054f 28bd 4f37 bc3d 01fd 30bc 76ce 74bd
000000b0: 44ef 3f3e 5ddf e0bd 0c24 d23d 6a18 073e
000000c0: 8588 d03d 7a2c debd 3ded cdbd fc44 fb3d
000000d0: 1b37 9abd ee7f 65bd cad3 3e3d 25e7 97bd
000000e0: 6db4 99bd 68be 04be 9672 8dbd 0eaf c7bd
000000f0: da02 e1bc 945c cfbd bc5f 2fbd 7a09 f5bd
00000100: c333 b3bd f04b bebd 1c74 7abd 6393 d9bd
00000110: e9a3 8abd 3a6b f6bd 7612 9ebd 82eb c43d
00000120: 4644 b3bd 52c9 eebd d966 babd 117f 0a3e
00000130: 7bfd 37bd c1d9 273e 0e7c 5bbd 1f94 343c
00000140: 13df e8bd a71f 98bd 4f53 cabd 7dc9 b2bd
00000150: 52b6 70bd e180 a4bd 80e6 85bd dead 8bbd
00000160: 3183 98bc 45b9 a6bd 2317 ef3d 1ee3 b9bd
00000170: fad3 ef3d 3b2e bb3d 0f66 393c fd7a 723d
00000180: 925f 88bd f76e c4bd 4823 2abd 3cab adbd
00000190: 4436 4cbc cb5a c9bd ef30 6b3d af38 083d
000001a0: a1a5 f8bd fc02 98bd fe56 8bbd 2806 c63d
000001b0: 35e0 823d 12c4 dcbd b28a dabd 1361 ecbd
000001c0: 054d d83c c769 0f3d a5f6 1a3c 0384 fbbd
000001d0: dd86 a7bd 52e7 7b3d 145e cabd f3ce 323e
000001e0: 093b 93bd 60d0 203e 6c41 cc3d 9dea e8bd
000001f0: 2c61 91bd 957a 94bd 628b 88bd 391d a9bd
-0.06404537 0.010431263 -0.08856763 0.04008471 -0.086071864 -0.12225023 0.049994655 0.06645657
0.07241958 -0.08258529 -0.03764219 -0.09267423 -0.05317751 -0.09700958 -0.061535493 -0.12740222
-0.09043692 0.073333204 -0.015511598 -0.09031864 -0.07309535 -0.025569418 -0.08163188 0.07663918
-0.030307086 0.03610652 -0.052479018 -0.024066402 -0.0023267525 -0.10164454 -0.10317514 -0.08278871
0.060247842 -0.08675774 -0.050928842 -0.09018828 -0.033811104 0.05064337 -0.047640435 -0.019032039
-0.041090984 0.09190237 -0.010802508 -0.05976721 0.18743616 -0.10980103 0.10260782 0.13192907
0.10182289 -0.10848327 -0.10055015 0.12269017 -0.07530042 -0.056030206 0.046588697 -0.07417134
-0.075051166 -0.12963259 -0.06906621 -0.09750186 -0.02746718 -0.1012508 -0.04281591 -0.11964698
-0.08750107 -0.09291828 -0.061145887 -0.10623815 -0.06769545 -0.120321706 -0.07718365 0.09615232
-0.087532565 -0.116594926 -0.09101648 0.13525034 -0.044919472 0.1639166 -0.053585105 0.011021643
-0.11370673 -0.07427912 -0.09879171 -0.08729837 -0.058767624 -0.08032394 -0.06538105 -0.06820272
-0.018617244 -0.08140806 0.11674335 -0.09076522 0.11710353 0.09139677 0.011315837 0.059199322
-0.066588536 -0.09591477 -0.041537553 -0.08479926 -0.01246411 -0.098317705 0.057419714 0.033257183
-0.12140966 -0.07422444 -0.06803702 0.09669143 0.0639042 -0.10779585 -0.10670985 -0.11541953
0.026403913 0.035012987 0.009458219 -0.122810386 -0.0818002 0.0614999 -0.09881225 0.17461757
-0.071889944 0.15704489 0.09973416 -0.11372874 -0.07098612 -0.07249943 -0.0666721 -0.08257527
