generator_100_epochs.pth (torch, 874720 bytes, 4 tensors)

gen.0.weight f4 [256, 64]
000000 a3 3d 49 3e cb 5d 0f bc 22 3a 06 3e 17 34 3e bd
       0.19652419 -0.008750389 0.13108113 -0.046436395
000010 2e 33 a3 3c 27 c7 6b 3c e4 1b a3 3d 79 80 8d 3c
       0.019921865 0.014390743 0.07964304 0.017273175
000020 eb 27 33 3e b9 33 0e 3e 59 d0 88 be cf 0d 9b bd
       0.17495696 0.13886918 -0.26721457 -0.07570993
000030 e4 92 14 3d bf 01 76 be a9 56 e1 3d 3c 9c 30 bc
       0.0362729 -0.24024104 0.11002857 -0.010779437
000040 ce 99 05 3e 1e c4 7c 3c d3 74 82 3d 5c 92 20 bd
       0.13046953 0.015427617 0.06369939 -0.03920208
000050 31 85 d6 bd 94 3c 66 bc b2 91 90 3d 30 54 cc be
       -0.10474623 -0.014052529 0.07059039 -0.3990798
000060 1e 33 5f 3d eb c2 93 bd 76 8a d1 3d b2 8e 65 be
       0.05449211 -0.07214912 0.102314875 -0.22417715
000070 ae 26 76 3d d2 d1 2b bd 76 e0 bf bd a0 62 ec 3d
       0.06009548 -0.041948147 -0.093689844 0.11542249
000080 39 c6 bd bc 80 ae 79 3e cb 5d d2 bd 99 7d 11 be
       -0.023165809 0.24382973 -0.10271796 -0.14208068
000090 71 ec 02 be a6 31 9a 3d 84 5a 93 bd 4a 4b 02 3e
       -0.12785508 0.07529001 -0.07194999 0.12724033
0000a0 3d db 94 3d 9f ec 5f 3d b4 2c 97 bd a9 a1 a9 3d
       0.07268379 0.05466902 -0.07381573 0.08282787
0000b0 d2 95 99 bc 0f 89 42 bb eb b2 e5 bd 26 1c 09 be
       -0.018748198 -0.0029683744 -0.112157665 -0.13389644
0000c0 3b c2 a8 bd 42 fb 23 be 12 e5 61 bd c1 67 14 bd
       -0.082401715 -0.16013816 -0.0551501 -0.03623176
0000d0 36 e2 8d 3d 21 b7 67 bb e8 7a 00 be d7 68 98 bd
       0.06927912 -0.0035356956 -0.12546885 -0.074418716
0000e0 ca a3 d4 3c bd 16 93 be 61 77 43 3c bc d0 c2 3c
       0.025957007 -0.28728285 0.011930318 0.023781173
0000f0 94 b1 22 3e 7f 9a 80 3e 01 4d 42 3d 82 21 79 3c
       0.15888053 0.2511787 0.047436718 0.015205743
000100 2d ad 92 bd 2c 14 58 3b ef 9e 44 bc ca 34 0a be
       -0.07161937 0.0032971008 -0.012000783 -0.134967
000110 d5 87 96 bd c6 b1 45 be c8 03 56 3d 80 f1 9d bd
       -0.07350127 -0.19306096 0.0522497 -0.07712078
000120 29 1e 0f bd 08 9f 2d bc 43 8b 0f 3c eb 35 a3 3d
       -0.034940872 -0.010596998 0.00876123 0.079692684
000130 0b fc 6b 3d 3b b8 78 3d 9c 30 06 3e 2c 27 97 bc
       0.057613414 0.06072257 0.1310448 -0.018451296
000140 32 55 9f b9 ad 27 18 3d 85 f7 e0 3d ff 5b 8a 3d
       -0.0003039032 0.037147213 0.109847106 0.06755828
000150 e6 06 78 bc fc 8d a5 3d f3 29 ce bc bf fb ea 3d
       -0.0151383635 0.08083722 -0.025166487 0.11473798
000160 c2 e3 58 bd 11 ef 7d 3d 40 c6 1b be 46 9d 5c 3c
       -0.05295158 0.06199557 -0.15212345 0.013465231
000170 b9 22 f0 bd 20 ee 83 3d 31 7d 96 bd 38 03 1b bd
       -0.11725373 0.06441903 -0.07348097 -0.037844867
000180 ef 0f 9f 3d ec dc 0e be 3d 74 f7 bc e1 f2 68 bd
       0.07766711 -0.13951463 -0.030206794 -0.056872252
000190 c2 fa e9 bc 0a 4a 1e 3d 16 93 2d 3d 9e 39 2d 3d
       -0.028561953 0.038644828 0.0423766 0.042291276
0001a0 a3 f5 4c bd 90 fe 5a 3d c1 b3 2b 3c 7a b0 c2 bc
       -0.050038945 0.053465426 0.010479868 -0.023765791
0001b0 e5 43 93 b9 d8 a2 b6 3c a2 c6 ed bd 46 e5 3a bc
       -0.0002808861 0.022294447 -0.11610152 -0.011407202
0001c0 da 9d 8c 3d 06 98 45 3e 3a 64 de 3d 54 9d b3 bc
       0.06866045 0.19296274 0.108589604 -0.021925606
0001d0 19 78 8d bc a2 4d 8a 3d 68 83 b4 bc fe 92 95 bd
       -0.017269181 0.067530885 -0.022035316 -0.07303427
0001e0 7e af 98 3d e9 01 a4 bd 28 51 0d bd 48 60 c2 3c
       0.074553475 -0.08008177 -0.034501225 0.023727551
0001f0 de 7c 6f 3c c5 6a 48 bd 84 8c 14 bd 75 c6 0a be
       0.014617173 -0.04892995 -0.03626682 -0.13552268
000200 9b 09 23 3e 3b cd 6c bc 0c 87 c7 3d 7c 93 8c 3d
       0.15921633 -0.014453228 0.09742555 0.06864068
000210 d1 39 95 bc c9 3a 0e be eb 84 f0 3c 11 d1 e3 3c
       -0.018216046 -0.13889612 0.029360255 0.027809652
000220 9e b3 00 3e fb 9e 52 3c ef 80 f2 bc 90 e3 61 bd
       0.12568519 0.012855287 -0.029602496 -0.05514866
000230 e6 80 71 bd 40 a7 ee bd 26 ca 30 3c 1e 9a 1e bd
       -0.058960818 -0.11652994 0.010790383 -0.038721196
000240 b5 1d 4f bd c6 75 24 bb 51 ad 2f 3d 54 94 e4 3d
       -0.05056544 -0.0025094613 0.042889897 0.11161104
000250 94 ca 4a bd 2c a4 d4 bd 6f 16 cc bb 77 67 9d bd
       -0.0495096 -0.10382876 -0.00622826 -0.0768575
000260 71 ef 06 3d d7 1e f7 bb 8c c5 e0 3c 10 28 78 bd
       0.032943193 -0.007541518 0.027437948 -0.06058508
000270 7b c3 93 3d a2 2f b5 3d e7 54 17 3c 93 f4 a8 3c
       0.07215019 0.08846976 0.009236551 0.020624435
000280 b4 ef 10 bc 5f 7d a2 3d b1 c3 9e 37 f1 7e 8f bd
       -0.008846212 0.07934069 1.8926194e-05 -0.07006634
000290 a3 b2 a6 bd 30 85 4a 3c 51 51 42 3d e1 d4 05 3b
       -0.08139541 0.012360856 0.04744083 0.0020421075
0002a0 14 61 ef 3c 48 9c 2d 3d 4e 07 da bc f9 25 f9 3b
       0.029221095 0.04238537 -0.026614811 0.0076034036
0002b0 0d 20 28 be 88 cd 2e 3d 90 21 30 bd bc d9 67 3d
       -0.16418476 0.04267648 -0.043000758 0.056604132
0002c0 a7 84 6a bc 6d b3 ef 3c ce 7c bb bc a6 91 02 bc
       -0.014313853 0.029260362 -0.02288666 -0.007969296
0002d0 e6 0c 03 3d dc cc 40 3e d7 21 ad bd ee b9 5c bd
       0.031994723 0.18828148 -0.0845372 -0.053888254
0002e0 63 33 35 3d 83 7f 77 3c 0c 50 f7 3d 9e ae e2 3d
       0.04423846 0.015106085 0.120758146 0.11068462
0002f0 eb bb d9 3d 12 0e 75 bd 4e de de 3c 20 53 60 3d
       0.10631546 -0.05982787 0.027205613 0.054766774
000300 70 3b 4d be 69 fb ec 3d ce 0c 5b 3d 35 8b 59 bd
       -0.20042205 0.1157139 0.05347901 -0.053111274
000310 da 9b a4 3d 7f 3d d2 3d 55 cc 2f 3e 2a 30 3f 3d
       0.08037539 0.10265636 0.1716779 0.046676792
000320 2c 20 a3 3d 46 c6 1e 3e 09 66 5c be ea 44 da 3c
       0.07965121 0.15505323 -0.21523298 0.026644189
000330 02 b5 c5 3c 98 88 14 3e ca bd a2 3d 63 a1 30 be
       0.024134163 0.14505231 0.07946356 -0.17249064
000340 51 df 45 3e 9c 64 fb 3d 7d ea cc bb fd 6c 63 be
       0.1932347 0.12275049 -0.006253539 -0.22209544
000350 dc 43 ac bd 77 6c 05 3e 76 b7 09 3e 9a 4a bd 3d
       -0.08411381 0.13029657 0.13448891 0.09242745
000360 5f 2a 71 bd 56 6d cb 3c 4b f5 20 bc 07 7c 2d 3d
       -0.0588783 0.024832409 -0.009824107 0.04235461
000370 63 ca fd 3c 3d 5c 0b be c7 7d 14 3b e8 58 6d 3e
       0.030980295 -0.13609405 0.0022657977 0.23178446
000380 bc e4 07 bd 0c 75 71 bb e9 62 93 bd 40 7d 17 3d
       -0.033177122 -0.0036843447 -0.071966 0.036984682
000390 c2 60 9c bb 50 5d e9 3d d3 a5 b4 bc 0e 46 82 3d
       -0.0047722766 0.11394751 -0.022051727 0.06361018
0003a0 f4 c8 97 bd b8 ed 13 bd bc 74 8d bd 12 73 d0 bd
       -0.07411376 -0.03611538 -0.06907031 -0.10178198
0003b0 3d 36 77 3e 5b 51 50 be 6a b2 24 be b6 a6 19 be
       0.24141784 -0.20343535 -0.16083685 -0.15005001
0003c0 ef e7 d4 bc 71 b0 71 3c 74 88 bf bd 13 78 0a 3d
       -0.0259895 0.01475154 -0.09352198 0.033805918
0003d0 13 e7 35 be 1e f0 a4 be 06 9f e7 3d 8d d4 2e bb
       -0.17763929 -0.32214445 0.11309628 -0.0026676983
0003e0 41 79 b0 bc e3 dd 27 be 19 22 00 be 64 ae 3a bd
       -0.021542193 -0.16393237 -0.12513007 -0.045576468
0003f0 80 8b a0 bc 97 be 40 3e b4 99 d2 3c 69 1f 4e bd
       -0.019597769 0.18822704 0.025708057 -0.050322924

gen.0.bias f4 [256]
000000 df 73 7b bf 47 80 9e be 52 53 4a 3e c0 21 14 bf
       -0.9822368 -0.30957243 0.19758347 -0.57864
000010 05 26 bf bd ce ca e5 be 9b 61 92 bf 40 f8 74 bf
       -0.093334235 -0.4488129 -1.1436037 -0.956913
000020 cf 15 67 3d 3a 10 1d bf 44 cb 2b 3d 6f 1b a7 3e
       0.056417283 -0.61352885 0.041941896 0.32638118
000030 d5 a4 fa be c2 49 b1 be 19 68 3a bf 9a 2f 77 bf
       -0.48953882 -0.34626585 -0.7281509 -0.9655701
000040 ce 4c 16 bf 92 dc 4f bf 4d 2d b4 be 36 52 13 bf
       -0.58710945 -0.8119594 -0.35190812 -0.5754732
000050 58 a0 92 bf 25 61 31 bf ca 07 8d bf e9 f2 a8 be
       -1.1455183 -0.69288856 -1.1018002 -0.32997826
000060 c7 73 1b bf c3 a5 2b bf 4c 54 61 bf 01 e3 43 3e
       -0.6072354 -0.6704981 -0.8801925 0.19129564
000070 e2 06 58 bf 7b 80 3b bf 7a 7b 19 be d2 16 40 bf
       -0.843855 -0.7324292 -0.14988509 -0.7503482
000080 71 4a 1b bf 62 0a ff be 7c e3 99 be 19 8b 0b bf
       -0.60660464 -0.4981261 -0.3005637 -0.5450912
000090 56 47 07 bf 9b 76 a5 be b2 b8 a2 3c 44 fd eb be
       -0.52843225 -0.3231705 0.01986346 -0.46091664
0000a0 34 63 47 bf 86 27 5f bf 23 be 53 be af 1c ee be
       -0.77885747 -0.8716968 -0.20678 -0.4650626
0000b0 e8 cf b7 be 8a 48 e9 be 5f e4 48 be ef d0 6f be
       -0.35900807 -0.45563155 -0.19618367 -0.23419546
0000c0 d0 14 40 bf 38 ac 9a be cf 30 30 bf 42 f7 12 bf
       -0.7503176 -0.30209517 -0.68824476 -0.57408535
0000d0 2e 25 9a bf e5 d2 d6 be bb a0 29 bf 1e be 64 3c
       -1.2042596 -0.41957775 -0.6626088 0.013961343
0000e0 be b1 06 bf 21 11 8a be 3b e3 e7 be 12 ae 58 3c
       -0.52614963 -0.26966193 -0.4529055 0.013225095
0000f0 c4 cf 86 bd f7 85 ab be 3f 60 e0 be 70 c1 09 bf
       -0.06582597 -0.33500645 -0.4382343 -0.5381079
000100 c6 85 25 be 43 9e 93 bf 92 88 dd be f3 c6 0d bf
       -0.16164312 -1.1532673 -0.43268257 -0.553817
000110 78 4b 5d bf e6 df 89 be a8 ad 48 bf a6 87 59 bf
       -0.8644328 -0.26928633 -0.7838998 -0.8497261
000120 49 08 3b bf 36 bb 2a bf 2b af 09 bf b4 76 57 bf
       -0.7305952 -0.6669191 -0.5378291 -0.841655
000130 46 6c c9 be 63 e5 89 be dc 4f ef be 4f 1a 14 bf
       -0.3934042 -0.2693282 -0.46740615 -0.57852644
000140 86 0c 11 bf 5c 55 5b bf 94 be e1 be d8 0f 02 bf
       -0.56659734 -0.85677123 -0.44090712 -0.50805426
000150 40 0f 9f 3e bc a6 e4 be a4 30 10 3d 4f ac 1f bf
       0.31066322 -0.44658458 0.035202637 -0.623723
000160 1e 40 ed be 04 55 b4 be 09 42 cf be db a1 36 bf
       -0.4633798 -0.35221112 -0.40480068 -0.7134072
000170 b5 19 39 bf 51 d1 30 bf e6 5b 30 bf ad 89 ed be
       -0.7230485 -0.6906939 -0.68890226 -0.463941
000180 53 c3 ec be 5f 5d b8 be f1 8e 2f 3d 44 ad d9 be
       -0.4624277 -0.36008736 0.04286093 -0.42515004
000190 1d 98 b8 bd a0 b3 5e bf 3e da 88 3b 8d 25 1a bf
       -0.09013388 -0.86992836 0.004176407 -0.6021355
0001a0 d3 6e 17 bf 29 40 00 bd 44 8e 02 be 36 64 05 bf
       -0.5915348 -0.031311188 -0.12749583 -0.52106035
0001b0 71 e3 e9 be 54 9d ff be f4 66 84 bf 39 56 b6 be
       -0.45681337 -0.4992472 -1.0343919 -0.35612658
0001c0 04 e8 06 bf d8 68 29 bf b8 bd b2 bf 4b 50 04 bf
       -0.5269778 -0.66175604 -1.3964148 -0.5168502
0001d0 f1 5c 15 bf 2e 1a 3a bf ca 02 c6 be d1 a3 2c bf
       -0.5834494 -0.726962 -0.38674003 -0.67437464
0001e0 c7 63 d4 be a6 09 50 bf 10 2d 55 bf 3d 66 36 bf
       -0.41482374 -0.8126472 -0.83271885 -0.71249753
0001f0 ef 5b 2a bf 36 e1 40 bf f0 21 33 bf e0 27 d7 be
       -0.6654653 -0.75343645 -0.6997366 -0.4202261
000200 9e 40 17 bf 0d 00 38 bf 83 ac 80 be 91 b0 9f be
       -0.59082973 -0.7187508 -0.25131616 -0.31189397
000210 b1 3e 08 bf c9 f5 28 bf 61 91 34 bf 69 77 15 bf
       -0.5322066 -0.6600004 -0.7053433 -0.5838533
000220 a0 63 e5 be 2f 5d a5 be 33 1c cb bd 4b 91 39 bf
       -0.4480257 -0.32297656 -0.09917488 -0.72487324
000230 34 4c 48 bf 1a 6d 44 bf 16 9e a8 be 67 f2 d2 be
       -0.78241277 -0.76728976 -0.3293311 -0.41200563
000240 ee 14 0c bf ec 33 6e be af ef 89 be 01 54 93 be
       -0.54719436 -0.23261994 -0.26940677 -0.28775027
000250 91 2d 73 bf 3a 66 1c be 6b 05 d7 be 49 58 b2 be
       -0.94991404 -0.15273371 -0.4199632 -0.3483298
000260 d7 27 b8 be d7 50 35 bf 41 7b 4e be 4d 52 28 be
       -0.35967895 -0.70826477 -0.20164205 -0.16437645
000270 ef 80 73 bf 57 bd 44 be 20 68 bc bd 8c 90 17 bf
       -0.9511861 -0.19212852 -0.09199548 -0.59204936
000280 2f ac 25 bf 89 63 0c bf fa db 81 be 2b 74 c4 be
       -0.64715856 -0.5483938 -0.2536314 -0.3836988
000290 b9 a6 9e be 60 bb 83 bf 57 7f 5f bf 54 d7 bc be
       -0.30986574 -1.0291557 -0.8730368 -0.36883032
0002a0 5d 75 b5 bf 3e e9 4f bf 1e dc 1d bf 0c 44 70 be
       -1.4176441 -0.81215274 -0.61664 -0.23463458
0002b0 ce 88 25 bf 93 c1 4a bf 35 fa 83 bf d5 60 18 be
       -0.6466187 -0.7920162 -1.0310732 -0.14880688
0002c0 ae 1c f3 be f2 94 5e bf ce a2 2e bf 9c ec 05 bc
       -0.47482818 -0.8694602 -0.6821717 -0.008174088
0002d0 52 cb 3e bf a8 58 c4 bd fb 23 00 bf 95 f2 6c bf
       -0.7452899 -0.09587222 -0.500549 -0.9255765
0002e0 c2 f3 03 bf 3d 42 4a bf 9f 72 02 bf 8b d0 11 bf
       -0.5154382 -0.7900732 -0.5095615 -0.56958836
0002f0 dc 90 c1 be 64 c4 6f bf ba 7a 9a be 75 bc 0d bf
       -0.3780583 -0.93659043 -0.30171758 -0.5536569
000300 26 1e 30 bf 40 de 53 bf 77 00 5b bf 54 97 b8 be
       -0.68796 -0.82761 -0.85547584 -0.36052954
000310 98 d8 92 be ad 71 65 bf 47 cf 16 bf 10 e9 18 be
       -0.28680873 -0.8962658 -0.5891003 -0.14932656
000320 9a f7 e6 be 82 08 71 bf 3f 05 8a bc ad 62 14 bf
       -0.4511078 -0.94153607 -0.016848205 -0.5796307
000330 70 52 2e bf 1d a7 ba be ee de fb be 2a 62 2e bf
       -0.6809454 -0.36455622 -0.4919352 -0.68118536
000340 a9 d2 82 bf e8 52 20 bf 52 12 94 bf 3e 81 d9 bf
       -1.0220538 -0.62626505 -1.1568091 -1.6992567
000350 91 2c 47 be a8 29 44 be fb 18 ff be 62 c4 11 bf
       -0.19450594 -0.19156516 -0.49823746 -0.5694028
000360 e4 a9 4f bf e2 65 0b bf 6b 32 bb be be 3e eb be
       -0.8111861 -0.54452336 -0.36561903 -0.45946306
000370 45 66 de be 29 7e e9 be 58 12 81 be 6a 09 90 be
       -0.434374 -0.45604065 -0.25209308 -0.28132182
000380 a2 7b ac bf 97 7c 81 bf da ae 54 bf d8 e0 31 3e
       -1.347523 -1.0116147 -0.830793 0.17370927
000390 1d a1 67 bf e9 43 42 bf 08 51 03 bf 5d 09 22 3e
       -0.90480214 -0.7588487 -0.5129552 0.15823884
0003a0 eb 48 59 bf fc c8 10 bf 71 6f 28 bf ef 72 79 bf
       -0.8487689 -0.5655668 -0.65795046 -0.97441
0003b0 fe 76 f0 bd d8 b7 0e bf 68 d5 4d bc c3 78 53 bf
       -0.11741446 -0.55749273 -0.012563087 -0.8260614
0003c0 52 fd f6 be ea 68 0c bf f3 fa 87 bf 95 d5 12 bf
       -0.48240143 -0.54847586 -1.0623459 -0.5735715
0003d0 03 75 81 bf 24 e6 02 bf 9f fb 17 bf ed 66 9f be
       -1.0113834 -0.51132417 -0.5936832 -0.31133214
0003e0 c8 77 ef be f4 13 22 be d0 eb b0 3c d6 74 bc be
       -0.46771073 -0.15827924 0.02159682 -0.3680789
0003f0 6e ae 52 bf 12 42 21 bd 13 08 7a bf b1 91 ab 3e
       -0.8229741 -0.03936965 -0.9766857 0.3350959

gen.2.weight f4 [784, 256]
000000 b6 0d 5b bd 84 f8 31 bf 96 bd 20 bf ba 07 32 be
       -0.053479873 -0.6951983 -0.62789285 -0.1738576
000010 ea 7d 22 bf 55 93 43 3e 9c 7f d5 be 2e ff 3a 3e
       -0.6347338 0.19099171 -0.4169892 0.18261406
000020 1f 6c b1 be 5b 11 bb 3d f4 45 21 bf 83 06 f3 be
       -0.34652802 0.0913417 -0.62997365 -0.47465906
000030 d7 7e f3 bb 2b e4 eb be 31 8f 4e bd 18 d1 64 3e
       -0.007430892 -0.46072516 -0.050429527 0.22345388
000040 d9 52 d8 be c1 18 6f 3d d3 b1 e9 be af c0 c0 bd
       -0.42250708 0.058373217 -0.45643482 -0.094117515
000050 31 86 4f 3e eb 9d 96 be 1c 7c ab 3d cd 69 06 bf
       0.20266034 -0.29417357 0.08373281 -0.5250519
000060 62 9e b2 be 36 c6 b1 be 7f 3a 76 3c c8 41 0d bf
       -0.34886461 -0.34721535 0.015028595 -0.551785
000070 44 a0 fa be ff 4c 15 3e c0 99 e3 be b2 75 15 bf
       -0.48950398 0.14580153 -0.4445324 -0.58382714
000080 a7 23 7f bd bf 81 b6 be f3 07 1d be d6 31 65 bf
       -0.06228986 -0.35645863 -0.15335064 -0.8952917
000090 59 69 64 be b6 8e f8 bd b9 e3 f8 bd 04 33 bc be
       -0.22305812 -0.12136595 -0.1215281 -0.36757672
0000a0 64 79 4d 3c cd 81 9e 3e e8 95 2d bf 3a 1c 0b 3e
       0.012541149 0.30958405 -0.67806864 0.13584986
0000b0 07 00 59 3e 78 d7 0c 3e cd 47 2d be b4 ee 72 be
       0.21191417 0.1375407 -0.16921921 -0.2372387
0000c0 db 69 12 be 21 e3 2b be c4 ca 72 3f 73 a5 f2 bd
       -0.14298193 -0.16785862 0.94840646 -0.11847963
0000d0 b0 b4 30 3e 75 51 39 be b6 55 bd bc 7e d8 01 3e
       0.17256427 -0.1809748 -0.02311216 0.12680241
0000e0 21 05 32 bf 19 d9 10 bf a6 6a 99 be bd 12 b1 bd
       -0.69539076 -0.56581265 -0.2996418 -0.08646152
0000f0 08 ab 78 be ce 90 9d be a4 9f bc bd ba 36 4c be
       -0.24283993 -0.3077454 -0.092101365 -0.19942752
000100 b7 e0 5b be 9b 33 be be 3c 45 eb be 33 d0 09 bf
       -0.2147244 -0.37148747 -0.4595126 -0.5383331
000110 7a f4 ec bd 0d 28 2c bf b5 8e b0 bd a8 85 27 be
       -0.11570068 -0.6724861 -0.08620969 -0.1635958
000120 0c 02 bd be 90 06 79 3e 6d 32 e7 3e 8f a9 ac 3d
       -0.36915624 0.2431891 0.4515566 0.08430778
000130 a1 c3 34 be 48 c0 6a 3c 65 56 9f 3e 71 7b 2a be
       -0.17652752 0.01432807 0.311206 -0.16648652
000140 63 d1 e2 be 68 93 e2 3d 59 f0 c6 be 4e de cb 3d
       -0.44300374 0.11063272 -0.38855246 0.09954511
000150 ca a5 54 be 1b 6a 06 3d 84 34 82 be 99 57 14 bf
       -0.20766369 0.032816034 -0.2543069 -0.57946163
000160 f6 3b 25 bf 24 2d a0 3e 40 95 66 3d 83 13 19 3f
       -0.6454462 0.3128444 0.05629468 0.597954
000170 39 67 0e 3d 7a de e5 be a5 f1 7c be 49 82 2c bf
       0.03476641 -0.448963 -0.24701555 -0.673863
000180 91 f3 30 bf a9 94 19 bf fb cf 1f bf 6b d9 56 3e
       -0.6912165 -0.5999246 -0.6242673 0.20981376
000190 4f 73 f9 bc 87 fd 68 3d 24 3f 89 be bc 1f 2e 3d
       -0.030450491 0.056882408 -0.26805985 0.042510733
0001a0 57 bb bf bb 9c 8a 70 bd 22 34 96 be df 21 f8 bc
       -0.00585119 -0.05872594 -0.2933665 -0.030289588
0001b0 29 dd 88 bd 42 a9 bd be a7 c4 0a 3f 5f 6a c5 be
       -0.06682808 -0.37043196 0.5420632 -0.38557717
0001c0 ca bd 0d 3f d7 b2 81 bd 40 38 71 3e d8 6d 02 bf
       0.5536772 -0.06332939 0.23556614 -0.5094886
0001d0 f0 9e 80 3e 97 08 8a be dd 23 9e be 8a 4b 60 be
       0.2512126 -0.2695968 -0.30886737 -0.21903816
0001e0 0b 36 fc 3d 46 07 df 3e b2 1d a6 3d d8 de 0a 3f
       0.123149954 0.43560237 0.08111133 0.5424628
0001f0 b9 be 21 bf 7c 31 08 bf 85 6c 91 be 86 26 16 bf
       -0.63181645 -0.5320051 -0.28403106 -0.5865253
000200 a4 fb b7 be 29 63 85 3c 4c 76 1c be 8e 9b b2 bd
       -0.35934174 0.016282635 -0.15279502 -0.08721076
000210 94 99 b6 bc 17 db 5e bd 59 eb 71 be 56 96 e4 be
       -0.022290029 -0.05440816 -0.23624934 -0.44645947
000220 c5 00 45 bd 02 23 4d bf 8e c4 fe bd f4 0d 9e 3e
       -0.048096437 -0.8013154 -0.124398336 0.3087002
000230 a8 d0 05 bf 13 f6 ab 3d 9b ba 05 bf 97 29 07 be
       -0.5227151 0.08396544 -0.5223786 -0.13199459
000240 ff c2 b1 be 4c c0 ab be cf 7a 05 3f dc dc 09 3d
       -0.34719083 -0.33545148 0.52140516 0.033657894
000250 a2 e1 ba 3d 13 10 2a bf 86 71 d0 be 7b 2f 0f bf
       0.09125067 -0.6643078 -0.40711612 -0.55931824
000260 6a c8 6b 3e 32 1e 4b be 5c f2 94 be 99 9b ec 3b
       0.2302567 -0.19835737 -0.29091156 0.007220697
000270 05 6a 5f 3e 8e 99 53 be f4 b2 8f 3e f1 85 40 3f
       0.21817787 -0.20664045 0.28066218 0.7520438
000280 e8 38 17 3e c2 1e 86 3e 6c f7 bf be 2b b6 ab 3e
       0.14767802 0.2619534 -0.37493455 0.3353742
000290 18 e1 8d be ab 03 9e 3e e2 d8 c8 bd 9b 0f 21 3d
       -0.27710795 0.30862173 -0.09806992 0.039321523
0002a0 a2 9f e4 3e 1b 75 cc 3e 05 fa f7 3e ce 09 03 3e
       0.4465304 0.39933094 0.48432937 0.12796709
0002b0 22 01 3a bd 9c c2 f7 bd d4 61 b4 3e 8f e6 b0 be
       -0.045411237 -0.12097666 0.35230887 -0.34550902
0002c0 86 b4 b2 bd 70 0c c8 3b e8 7d 8e bd 79 ab 17 bf
       -0.08725838 0.0061049983 -0.069576085 -0.5924602
0002d0 0d 62 44 3e 61 3b e3 be 91 4e dd bd 9a 8d 6d 3e
       0.19178028 -0.4438124 -0.10806001 0.23198548
0002e0 24 05 0c bf b8 2f d3 bc 87 c7 c6 3e 54 27 cb 3e
       -0.54695344 -0.02577959 0.38824102 0.39678442
0002f0 b5 36 21 bf 15 c8 21 bf bd 9a 99 be cb 7a 8a 3e
       -0.629741 -0.63195926 -0.30000868 0.2704681
000300 ad a3 dc 3e d4 85 31 be 6b ab f3 be 80 ec 61 3e
       0.43093625 -0.17336208 -0.4759172 0.22062874
000310 ac 6e 2a 3d 3f c6 83 3e 9b 4d 07 bf 76 3a c5 be
       0.04160945 0.25737187 -0.5285279 -0.38521165
000320 2b 07 9b 3e 05 94 02 3e f7 75 17 bf 21 ed 28 be
       0.30278906 0.12751777 -0.59164375 -0.16496707
000330 6b f5 1b 3f 84 d2 a7 be d2 04 b5 be 63 f7 20 3d
       0.60921353 -0.32777798 -0.3535524 0.039298426
000340 f9 78 15 be 17 37 95 3c 78 f0 0f be c1 5f d4 3e
       -0.14596929 0.018214745 -0.14056575 0.41479304
000350 12 f9 a2 be 73 c2 29 be 20 73 78 be 13 a1 89 3d
       -0.3183065 -0.16578083 -0.24262667 0.067201756
000360 40 23 2e 3e d6 f2 95 3d 41 53 5a be 49 10 3a bf
       0.17005634 0.07321708 -0.21320821 -0.726811
000370 78 64 02 be b1 32 8d 3d 02 dd 47 be fd 0e 29 bf
       -0.12733638 0.06894434 -0.19517902 -0.66038495
000380 f0 86 68 be 80 ab 38 3f a7 f0 44 bc 79 34 64 bf
       -0.22707725 0.7213669 -0.012020267 -0.89142567
000390 aa 2b 55 3d 17 9a 28 3f 49 ee e9 3d 9e 6b f5 be
       0.052043594 0.6586012 0.114224024 -0.47933668
0003a0 86 7f f1 3b 25 4d bd be b5 d1 91 3d e6 97 0a be
       0.0073699383 -0.3697292 0.071200766 -0.13534507
0003b0 67 08 20 bd cb 87 e9 3d fe 33 c4 be 99 be 89 3d
       -0.039070513 0.114028536 -0.38320917 0.06725807
0003c0 a7 ca c1 be 0f 6f 80 3e 68 8b 8c bd 0f e9 5b be
       -0.37849924 0.2508473 -0.06862527 -0.21475624
0003d0 f0 a2 f1 3e 64 b5 d3 be a9 3b 2d bf 29 e5 0d 3f
       0.47194624 -0.41349328 -0.6766916 0.55427796
0003e0 6b 03 2a 3d 85 61 ec be ac 25 1c bf f2 18 a9 3c
       0.041507166 -0.46168151 -0.6099498 0.020641778
0003f0 86 bc ae be 5c f2 c5 3c f8 f9 1f 3f 8f 5c 1f bf
       -0.34128207 0.024163418 0.624908 -0.6225061

gen.2.bias f4 [784]
000000 e7 8c d4 be dc 61 fb be a8 34 47 bf 97 9b 50 bf
       -0.4151375 -0.49098098 -0.7781472 -0.8148741
000010 22 55 fd be 19 40 31 bf 8d f2 2e bf 2f a8 55 bf
       -0.49479014 -0.6923843 -0.68338853 -0.8345975
000020 23 f0 28 bf ba e2 43 bf d6 a7 18 bf f2 a1 45 bf
       -0.6599142 -0.7651783 -0.596311 -0.77200234
000030 0e 1e 1f bf c8 56 2c bf 97 48 4c bf 46 14 5b bf
       -0.62155235 -0.6731992 -0.79798263 -0.8557781
000040 d3 d5 1e bf 02 93 5e bf 09 aa 22 bf 8c ad 08 bf
       -0.6204502 -0.86943066 -0.63540703 -0.5338981
000050 86 f5 41 bf 28 c9 24 bf bd 8d 0f bf a4 c6 0e bf
       -0.75765264 -0.6436944 -0.5607565 -0.5577185
000060 b2 90 1f bf f8 ac 6e bf aa d4 40 bf 8a 6b 35 bf
       -0.6233016 -0.9323268 -0.753245 -0.70867217
000070 2b 15 4b bf bd 95 35 bf 8c df d5 be 3b 08 52 bf
       -0.79329175 -0.7093161 -0.41772115 -0.8204381
000080 8e d3 3b bf 85 ea 2b bf 6f fe 1c bf 14 c5 23 bf
       -0.7336968 -0.67154723 -0.61325735 -0.6397259
000090 3b 9f 4a bf b5 d9 02 bf c8 2e 45 bf f1 c0 1d bf
       -0.79149216 -0.51113445 -0.7702451 -0.6162253
0000a0 3b 13 21 bf 60 8d f4 be dc cc 2c bf b1 87 3e bf
       -0.6291997 -0.4776411 -0.6750009 -0.744258
0000b0 bf f0 07 bf 47 8d 25 bf 03 4f 14 bf e5 4a 13 bf
       -0.53101724 -0.646687 -0.5793306 -0.57536155
0000c0 2d 5a 44 bf 19 aa 21 bf a3 e6 fb be 4b d5 43 bf
       -0.767001 -0.63150173 -0.491994 -0.76497334
0000d0 a0 1c ee be af 7f 12 bf c6 fe 5c bf 62 ea 14 bf
       -0.46506214 -0.5722608 -0.86326253 -0.5817014
0000e0 e1 75 2b bf 52 8e 14 bf a0 be 24 bf ba 74 10 bf
       -0.66976744 -0.58029664 -0.6435337 -0.5642811
0000f0 fd e7 03 bf 0a 18 45 bf e0 ad 37 bf 4c 08 29 bf
       -0.5152586 -0.76989806 -0.7174969 -0.66028285
000100 c0 27 fc be 01 d0 1e bf 0e e4 47 bf 57 e3 35 bf
       -0.49249077 -0.6203614 -0.7808236 -0.7105002
000110 75 06 33 bf fb 0a 37 bf 9c 36 33 bf 70 4b 25 bf
       -0.6993173 -0.7150113 -0.700052 -0.64568233
000120 5f f2 4c bf 3c 00 35 bf c1 b5 3c bf 3f 70 22 bf
       -0.8005733 -0.7070348 -0.73714834 -0.63452524
000130 76 aa 25 bf 3a ee 12 bf 88 10 1b bf a1 ae 18 bf
       -0.6471323 -0.57394755 -0.605721 -0.5964146
000140 25 9b 16 bf c5 82 23 bf 12 c0 44 bf aa e3 27 bf
       -0.5883048 -0.63871413 -0.76855576 -0.6558176
000150 e3 29 2c bf 20 03 27 bf b8 4d 3d bf 67 6c fc be
       -0.67251414 -0.65239143 -0.73946714 -0.49301454
000160 e5 6e 20 bf 06 c7 57 bf 3a 80 21 bf 25 0c 25 bf
       -0.6266921 -0.8428806 -0.63086283 -0.64471656
000170 97 16 15 bf 68 08 05 bf 02 6d 3b bf e7 1d 0d bf
       -0.58237594 -0.5196595 -0.7321321 -0.5512375
000180 2e 92 19 bf 52 41 1a bf 8d 7f 33 bf 3a c9 34 bf
       -0.5998868 -0.6025592 -0.701165 -0.7061955
000190 6e f3 5d bf ec 32 4e bf 6a 2c 55 bf 03 27 34 bf
       -0.8669957 -0.8054645 -0.83270895 -0.7037203
0001a0 67 8c 50 bf 94 92 2e bf 33 19 35 bf 85 2c 34 bf
       -0.81464237 -0.6819241 -0.70741576 -0.7038043
0001b0 29 d0 00 bf 8b 49 26 bf f5 84 15 bf 43 34 09 bf
       -0.5031763 -0.6495597 -0.58406 -0.5359537
0001c0 2c af 42 bf 49 89 0d bf f3 f2 1b bf e4 f6 41 bf
       -0.7604854 -0.55287606 -0.60917586 -0.7576735
0001d0 21 1a 2a bf 77 95 3a bf 0f 9f 35 bf 12 c7 36 bf
       -0.6644612 -0.72884315 -0.7094583 -0.7139751
0001e0 a9 cf eb be 8c 1c e5 be ed 81 df be 3b 04 d7 be
       -0.4605687 -0.44748342 -0.43653813 -0.41995415
0001f0 df b0 b8 be 6c a6 b3 be 90 fd cb be b8 02 b7 be
       -0.36072442 -0.35087907 -0.3984189 -0.35744262
000200 5c c6 a0 be 80 02 9c be 61 86 a7 be e7 71 04 bf
       -0.31401336 -0.30470657 -0.3271971 -0.517363
000210 72 b4 18 bf e9 c7 20 bf 07 a4 01 bf fc 71 23 bf
       -0.5965034 -0.6280504 -0.5064091 -0.638458
000220 11 60 4b bf 27 6a 13 bf 4a 66 3b bf 00 fc 28 bf
       -0.7944346 -0.5758385 -0.73202956 -0.6600952
000230 02 47 05 bf 4c b0 2d bf 38 ed 2e bf 91 c3 4a bf
       -0.52061474 -0.6784713 -0.6833072 -0.7920466
000240 1b 00 1a bf da 80 fc be 99 9c c2 be 9a 77 d2 be
       -0.6015641 -0.49317056 -0.380101 -0.41106874
000250 9c b2 de be e7 2f e4 be d4 6b a3 be be 04 b9 be
       -0.43495643 -0.44567797 -0.31918204 -0.3613643
000260 cd 3c 3a be 9b 60 84 bd 29 9b 8e bd 63 07 8c bd
       -0.18187256 -0.064637385 -0.06963188 -0.068373464
000270 e7 7a 36 be 86 a4 56 be 91 c1 31 be 95 fb a9 be
       -0.17820321 -0.20961198 -0.17358996 -0.33199754
000280 de d8 cd be 18 7b c8 be cf 47 10 bf 30 a1 49 bf
       -0.4020452 -0.39156413 -0.5635957 -0.7876158
000290 1d a4 16 bf 78 ac 21 bf 89 0c 2a bf fb e4 68 bf
       -0.58844167 -0.6315379 -0.6642538 -0.90974396
0002a0 0f 7b 69 bf 45 61 4d bf f8 05 0d bf 76 32 40 bf
       -0.912034 -0.80226547 -0.5508723 -0.75077
0002b0 47 f1 13 bf a5 9e e1 be 05 aa b9 be 0c d3 ce be
       -0.57790035 -0.4406635 -0.36262527 -0.4039539
0002c0 c3 e1 d5 be 0f 1b 66 be 7d 5c 8f be 88 ac 2c be
       -0.41773805 -0.2247126 -0.2800025 -0.1686269
0002d0 b2 f9 62 bd e8 7b a1 bd 5e 97 b9 bd 79 85 c4 bb
       -0.05541391 -0.07884961 -0.09062074 -0.0059973565
0002e0 ef 56 b6 bd f6 b8 81 bd 8d e2 4c bd f8 3d 40 be
       -0.089033 -0.063341066 -0.050020743 -0.18773639
0002f0 1f 84 64 be 91 09 b9 be ff 20 03 bf bf b7 49 bf
       -0.22316025 -0.3614011 -0.51222223 -0.78796
000300 71 d3 1d bf 2f 1c 25 bf e7 46 16 bf 6f b6 26 bf
       -0.6165076 -0.6449613 -0.5870194 -0.6512212
000310 21 10 4a bf 20 9b 39 bf 5e 94 3f bf 7c c8 20 bf
       -0.7893086 -0.72502327 -0.74835765 -0.62805915
000320 99 dd 07 bf 30 c5 be be 7d ba dd be 88 03 91 be
       -0.53072506 -0.37259817 -0.43306342 -0.28323007
000330 1e 88 93 be eb 02 ad be 6f 37 47 be 29 4f 01 be
       -0.28814787 -0.3379129 -0.1945474 -0.12627853
000340 80 3b 08 3c 19 1e bc 3c 1b 22 da 3d d8 e8 b4 bd
       0.008314967 0.02296357 0.10651036 -0.08833474
000350 e7 fc 48 3a 9d 51 de 3c bf 0b 85 bd 37 00 6e be
       0.000766708 0.027138526 -0.06496381 -0.2324227
000360 45 c8 52 be 0d 49 9b be ce 18 c9 be e4 d2 03 bf
       -0.2058421 -0.3032917 -0.39276737 -0.5149367
000370 b5 00 3c bf d5 32 18 bf 19 7a 2c bf 2a da 03 bf
       -0.7343858 -0.59452564 -0.67373806 -0.51504767
000380 15 ed 2c bf dd 32 2b bf 54 5b 25 bf 5c 49 21 bf
       -0.6754926 -0.66874486 -0.6459248 -0.6300256
000390 7e 67 f1 be db 8c ec be a1 13 a5 be 62 9c a8 be
       -0.4714927 -0.46201214 -0.32241538 -0.3293181
0003a0 09 9a 12 be d8 25 60 be 86 50 9c bd a6 94 0e be
       -0.14316572 -0.21889436 -0.07632546 -0.13923892
0003b0 e3 0e 4c bc 5a e0 39 3c 2d 67 d2 3c b3 c8 0c 3d
       -0.012454721 0.0113449935 0.025683964 0.03437109
0003c0 27 da 09 bd 2c 74 85 bd 65 82 ec bb 2e b0 98 bd
       -0.033655312 -0.06516299 -0.0072176927 -0.074554786
0003d0 e8 0f 4c be 39 1f 30 be 50 0e 9d be 94 9b 07 bf
       -0.19927943 -0.1719941 -0.30674982 -0.5297177
0003e0 39 16 2d bf 42 d9 27 bf ca 7b 27 bf 95 78 61 bf
       -0.67612034 -0.65565884 -0.6542326 -0.8807462
0003f0 c7 76 3b bf c2 c8 31 bf 1f c2 38 bf 2f d3 21 bf
       -0.73228115 -0.6944696 -0.72171205 -0.63212866
