generator_1_50_epochs.pth (torch, 874720 bytes, 4 tensors)

gen.0.weight f4 [256, 64]
00000000: 2787 903d 30bb b3bc 612d 863d 8fb1 dd3b
00000010: fc4e 6a3d 68d9 d7bd 3dc3 f13d 97b4 46be
00000020: 3fca fbbc 3fc9 513d a40a 90bd 6c4e e6bd
00000030: 4dae 65ba 5843 a4bd 7e5d 4c3d 6df4 e0bd
00000040: ca36 d8bd a7f2 103e d664 d5bd da15 43bd
00000050: 160f 5ebd 5c45 793d 41df 8ebd 3ad7 7a3d
00000060: 8eb4 80bd b9e3 b03d 2a64 87bd 97b5 96bd
00000070: be82 dfbd f3e4 1fbd b68b 123e 9c25 d5bd
00000080: c755 5b3d 6de3 8e3c f7df d33d db43 713d
00000090: dd6b 4ebd b0c7 d13c 3cb6 083d 492a 12bd
000000a0: de7f b5bd a1ff 683d 2681 1bbd 8d83 a03d
000000b0: 26ef 03be df6c 4b3c 5bd2 fcbc 4ba0 4bbd
000000c0: d770 c83d c619 823d f926 edbd 95bb a0bd
000000d0: 3fd1 a4bd 0351 3e3c 7209 90bc ba75 80bd
000000e0: 3623 6c3d f251 f03d a774 3b3e 0e13 3c3d
000000f0: 9c7d b63d fe7b 993d 5448 683c 67ce 6d3d
00000100: bfc3 ed3c a677 723d a3e4 be3d 527c a6bd
00000110: 75ca 17be 6378 13be afe1 40be e7d4 fa3c
00000120: 881c 88bc e73f 19be 93ae a83d a311 513d
00000130: 6487 c23d 9ead 2a3c 50ed 5d3d 1e08 953b
00000140: fe2c 30bd eccd 2abe 4892 693d 7dde 9f3c
00000150: e2fe d0bd e968 873d c009 993d 9fdc 8ebc
00000160: 8bd5 ffbc f4ea 59bd f294 d83d a089 2d3e
00000170: c2b3 a33c 71d7 0d3e f664 a83b 660d 323c
00000180: 5667 06be 2b09 bfbd 58a0 bcba 468c 0ebd
00000190: 9c70 a03d e989 923c e4f0 89bd a203 8bbd
000001a0: 790d b93d 76d1 923d 9c9d bd3d 7e6e ae3d
000001b0: e76c 4abc b2e8 8d3d d1a0 7dbb 414f e9bc
000001c0: 7a09 bfbd ce2e e93c e091 8abc 27ef 9c3d
000001d0: eabb fabc 1f30 c2bd 2b1f 94bd f7f2 b33d
000001e0: b67b 0a3c a1b6 f6bd 7f4f 55bd 01a5 32bd
000001f0: e9d6 f2bd 8880 e9bc 1b6a 913c 6e4a a4bd
00000200: 9b23 08bc 3e70 0d3e dbc0 e6bc f6eb f8bd
00000210: 4463 8e3d 7965 0b3d 86d6 213d 3f15 fd3d
00000220: 1f08 d2bd 1c8c 5dbd 8574 393d 4019 9bbd
00000230: 3078 c63d 17d5 bcbc fd19 3bbd c372 63ba
00000240: 4a86 d6bd 582a babd ee19 ac3d c4bf b83b
00000250: 8f8e 9b3c 0f24 56bb 84b5 aebd 3b36 56bd
00000260: 5884 12be b5f3 7e3c 2a7c 8abd 4cf8 b93d
00000270: 97b7 c7bc b078 953d f6b4 833d 6f60 3c3d
00000280: 4a91 a3bd 0972 14be a9b9 c5bc 0907 c1bc
00000290: 8228 34bc f962 ff3d 7626 7dbc 8eae b13d
000002a0: 52cf abba f861 e4bd ddec 33bd 5ccb 9f3d
000002b0: 1734 aabd 7c42 213c 1780 223e 9bca 0b3c
000002c0: 95cb 23be 0fdf 54bc 9f69 0b3d 6f04 733d
000002d0: 2365 20be 06b1 87bd f179 873d a9c2 08be
000002e0: eda7 543d 04c1 63bc 6f6c b4bc 2667 d43d
000002f0: 8902 6ebd e877 fa3b d774 dabd 2300 963c
00000300: 4044 0d3e 9ec3 043d 36f7 5f3d 13e4 473d
00000310: b198 c4bd 0e81 41be c263 50be aa56 8cbd
00000320: e8e8 fd3d 154a 2bbe 3f51 693c 9181 9d3d
00000330: 4f72 dd3c 25a9 433d b7ad 0c3a d30b 7fbd
00000340: ec23 28be e0a8 90bd 72e0 ca3c 2d6c 223c
00000350: ce2d c5bd fee1 0b3e d33a 50bd 290e ecbd
00000360: d774 d1bd b4bd 99bd f1b3 d03c 26af 643c
00000370: a84d 003d d6bb 943c 729f 2b3d 0c3b 7e3d
00000380: 7160 563d 89e1 9cbd dc6b edbb 0e8c 9ebc
00000390: 403f 453d dea0 95bd 85e1 263c 70a3 53be
000003a0: c123 be3c dfd6 163d 81b1 a8bd 5f2f c33c
000003b0: 58d8 e13c 3333 c2bc ad25 ad3d 748f 1abd
000003c0: 1646 b4bc d0c5 573d 5a84 a7bd f02f 473d
000003d0: 9780 6e3d e97d ecbb 1264 01be b4eb 863d
000003e0: 3189 a4bd 64a7 41bd e6a3 6abd 9d4a 9abd
000003f0: 03a1 dfbc 536c 4dbd f7cf 0f3e c178 d53d
0.07057028 -0.021939844 0.06551624 0.0067655514 0.05720423 -0.10539514 0.11804817 -0.19404827
-0.030736087 0.051217314 -0.070332795 -0.112454265 -0.00087616296 -0.08020657 0.04989385 -0.109841205
-0.10557325 0.14155065 -0.104196236 -0.04762826 -0.054213606 0.060857162 -0.06976176 0.061240412
-0.06284438 0.08637185 -0.06610902 -0.07358854 -0.10913609 -0.039036702 0.14311108 -0.10407564
0.0535486 0.01744243 0.10345452 0.058902603 -0.050395835 0.025607914 0.033376917 -0.035684858
-0.08862279 0.05688441 -0.037964962 0.07837591 -0.12884197 0.012416094 -0.030862024 -0.049713414
0.097871475 0.06352572 -0.11579699 -0.078482784 -0.08047723 0.011615994 -0.017582629 -0.062724546
0.057650767 0.1173438 0.18306218 0.04591661 0.08910677 0.07494353 0.014177401 0.05805817
0.029024003 0.059196137 0.09320953 -0.08129181 -0.14823325 -0.14401393 -0.18836091 0.030619098
-0.016615167 -0.14965783 0.082364224 0.05104221 0.0949848 0.01041737 0.054181397 0.004548087
-0.043011658 -0.16680115 0.05702427 0.01951527 -0.10204865 0.06611807 0.07472563 -0.017439185
-0.031229755 -0.053202584 0.10575284 0.16947031 0.019983176 0.13851716 0.0051389886 0.010867452
-0.13125357 -0.093279205 -0.0014391048 -0.034801744 0.078339785 0.017888026 -0.06735399 -0.06787802
0.09035773 0.07168858 0.09258577 0.085171685 -0.012355066 0.06929149 -0.003870059 -0.028480174
-0.093279794 0.028464701 -0.016915262 0.07662802 -0.030607183 -0.094818346 -0.07232507 0.08786576
0.008452347 -0.120465524 -0.052077767 -0.04361439 -0.11857397 -0.028503671 0.01775079 -0.08022009
-0.00830927 0.13812348 -0.028168133 -0.12154381 0.06952527 0.03403232 0.039511226 0.12357568
-0.10255455 -0.054088697 0.045277137 -0.075731754 0.09690893 -0.023050828 -0.04567908 -0.00086764636
-0.10474832 -0.09090108 0.08403383 0.0056380946 0.018988876 -0.0032675301 -0.08530715 -0.052297812
-0.14308298 0.015561034 -0.06761964 0.09080562 -0.024379535 0.0729841 0.06431 0.045990404
-0.07986696 -0.14496626 -0.024136381 -0.023562925 -0.010995986 0.124700494 -0.015451064 0.08675872
-0.0013108051 -0.111514986 -0.043927062 0.078024596 -0.083107166 0.009842511 0.15869175 0.008532192
-0.15995629 -0.012992634 0.034036275 0.0593304 -0.1566358 -0.066255614 0.06615055 -0.13355507
0.05191796 -0.013900999 -0.022024361 0.103712365 -0.058107886 0.0076436885 -0.10666817 0.018310612
0.13795567 0.032413118 0.054679118 0.048801493 -0.09599436 -0.18896887 -0.20350555 -0.06852467
0.12397939 -0.16727479 0.014240562 0.076907285 0.027032046 0.04776873 0.00053664617 -0.062267136
-0.16419953 -0.0706346 0.024765227 0.009913486 -0.09627877 0.13660428 -0.05083735 -0.11526138
-0.102273636 -0.07506886 0.025476428 0.013957774 0.03132406 0.018155973 0.041900106 0.06206803
0.052338067 -0.07660205 -0.007245524 -0.019353893 0.048156023 -0.073060736 0.010185604 -0.20667815
0.023210408 0.03682601 -0.08236981 0.0238263 0.027568981 -0.023706054 0.08454452 -0.037734464
-0.022006076 0.052678883 -0.08179541 0.0486297 0.0582281 -0.007217158 -0.1263583 0.065879256
-0.0803398 -0.047278777 -0.057285212 -0.075337626 -0.027298456 -0.050152134 0.14044176 0.104234226

gen.0.bias f4 [256]
00000000: 49a5 95be b163 12be dcab adbe eb47 dabe
00000010: e2c5 a6be 1e62 88be f334 68be 40aa e6be
00000020: 999e 8ebe 449b 6cbe 9def 3dbf 7c7a 073c
00000030: 7ee9 0dbf 4655 5abe 35a6 cfbe 9a54 a1be
00000040: 93c8 acbd 4d4b b2be 4eef 2abf 5c58 21bf
00000050: 3014 74be a7e1 f6be d8f4 e7be 998b 16bf
00000060: 0366 193e 43cf 2abf d804 07bd ff9f 44be
00000070: 4c41 cdbe c084 79bf cad2 55be 5954 d33d
00000080: 529e eebe b6db a9be 6082 b1bb 3c62 c3bd
00000090: f3c2 b0be 7b5c c4be c514 abbe b747 e4be
000000a0: 2595 72be ae82 dabe b4b5 a6be e503 a3be
000000b0: f308 8abe aca4 adbe b96d d0be a312 bebd
000000c0: 260c 8dbd 9285 49be ea87 96be d211 9bbe
000000d0: 5783 04be 314b 7bbe e134 85be ef55 eabd
000000e0: 12a8 33be ec10 43be 3a12 42bf be86 89be
000000f0: a3be 71be a46e 9ebe a70c fbbe d80c 21be
00000100: b579 d4be 6989 e3be 375a d93e daab abbe
00000110: b323 173f e560 7ebe 0483 9fbe 5791 99be
00000120: 6a7f 8f3d fc45 34be c301 e7be d87b 4dbf
00000130: 75d7 44be c70f e2be b118 2fbd 141f a6be
00000140: 3c48 45be c8ad 96be 9f70 3dbe 805f 36bf
00000150: 1140 4abf d644 91be d003 90be 9367 13bf
00000160: 5441 abbe cc13 7dbe fa7c d2be 926a d8be
00000170: e162 b4bc d10e 9abe b478 9cbe 1a10 87be
00000180: 53bf 25bf 0a77 54be d920 aebe fb41 84be
00000190: 1c56 e1be 6f5e 6b3c 091f dcbe 74ad 06bf
000001a0: edbe 82be 023b 9cbe 5b95 b6be 9b78 c1be
000001b0: b0e2 87be 8c7a cdbe 6780 8dbe 56cc 97be
000001c0: 1b67 38be 35a1 03bf 800e b7be 6a74 21bf
000001d0: d91b 7cbe 2d14 0cbf a177 a1be 992d b2be
000001e0: 4d3b 99be 07e4 96be 3f51 65be eb60 e5be
000001f0: 1b24 0ebe 0977 00be 6400 77be 5e6f 89be
00000200: 53e1 11be 1260 0abf f735 22be 6c54 c83b
00000210: 630d bcbe c910 b4be bf08 45be 3c7d 28bf
00000220: 9f46 b4be aded 9ebe 32c2 bebe c341 94bd
00000230: f44f d0be 2384 d3be e3c6 5fbe 8b10 60be
00000240: f493 213d 1376 d9be ce8d 4fbf 4c50 24bd
00000250: ea86 c83d eeaa a3be b763 a5be b183 113e
00000260: 83fd d1be c117 0bbe 9eb5 39be 821a 47bd
00000270: 318c 16be d409 053e ff23 a4be ce73 ffbe
00000280: b778 23bf abaf 13bf e104 8fbe eb36 d2be
00000290: 0593 9dbe 98ae a0be 2361 b2be 1144 5abe
000002a0: b03d e7bd 1142 8bbe c7c3 84be dccb 94be
000002b0: a806 f0be 9970 3fbe ca1e 53be eacf d3be
000002c0: 530f 96be 29ec 14be 3b5f 82be c7f0 93bd
000002d0: 85c7 51be c062 71be 1792 b93e 2940 04bf
000002e0: c10a c2be cf1d c4be d0e9 37be 8465 953e
000002f0: 28ef dfbe d490 c4be bdcd b9be c574 acbd
00000300: dd11 d2be a078 dbbe 8bae ecbe 6be3 80be
00000310: ce93 aebe 903f 98be 4e12 41be 5fce 30be
00000320: bdad f0be c11a 51be ec9e 503e dd62 613d
00000330: 98f7 91be 7b98 513d 7719 0fbf d661 3bbe
00000340: 8891 ddbe fad2 56be 8061 dfbe 1d67 04be
00000350: d021 24be f4ca d9be 3db6 07be 10af b3be
00000360: eef9 d7be e8fa 13be e868 773d ba09 62be
00000370: 165e c5bc 2fad c8be cee2 05be 08a5 a1be
00000380: 14bd 50be 0dae dabe 974a 13be 2f1b 5cbe
00000390: fda8 fbbe 2655 c6be 0f19 7bbe 0dca 95be
000003a0: 4cb1 cabe 568b bcbe ae40 d0be 776f 4fbe
000003b0: 4a7c c2bd b217 efbd 20f7 81be e778 25bf
000003c0: 9d5d 8fbe c818 a3be 568c c2be 7cb8 9bbe
000003d0: c9f3 c0be e660 5fbe 1d14 2abe e20a 24be
000003e0: d16f 9dbe 1335 6fbe 40b5 88be 35d3 b5be
000003f0: a044 84be c6af a2bd 50c1 b2bd 982a 60be
-0.29227665 -0.14295842 -0.3392018 -0.42632994 -0.32572848 -0.26637357 -0.22676449 -0.45051765
-0.27855375 -0.23106104 -0.74193746 0.008268949 -0.55434406 -0.21321592 -0.40556493 -0.31509858
-0.08436694 -0.34823075 -0.667714 -0.6302545 -0.23835826 -0.48219034 -0.45303988 -0.5880676
0.1498032 -0.66722506 -0.032963604 -0.19201659 -0.4008888 -0.97468185 -0.20881191 0.103188224
-0.46605164 -0.3317544 -0.0054171532 -0.09540221 -0.34523734 -0.38351807 -0.33414283 -0.44585964
-0.23689707 -0.42677826 -0.32560503 -0.3183891 -0.26959953 -0.33914697 -0.40708712 -0.092808984
-0.06887083 -0.1967986 -0.2940057 -0.30287033 -0.12940727 -0.24540402 -0.26016906 -0.11442172
-0.17544582 -0.19049424 -0.7580906 -0.26860613 -0.23607878 -0.30943787 -0.4903309 -0.15727556
-0.41499105 -0.44440773 0.4245164 -0.3352955 0.5903885 -0.2484165 -0.31154644 -0.29993698
0.07006724 -0.17604822 -0.45118532 -0.80267096 -0.19222815 -0.44152662 -0.042748157 -0.32445586
-0.19265836 -0.2942946 -0.18499993 -0.7123947 -0.7900401 -0.2837283 -0.2812791 -0.57579917
-0.3344828 -0.24714583 -0.41110975 -0.42268807 -0.022019805 -0.3008943 -0.3056084 -0.26379472
-0.6474506 -0.20748535 -0.34009436 -0.2583159 -0.4401101 0.014365776 -0.42992428 -0.5260842
-0.2553629 -0.3051377 -0.35660824 -0.37787327 -0.26540136 -0.40132558 -0.27637026 -0.29648083
-0.18008082 -0.5141786 -0.3575325 -0.6306826 -0.24619998 -0.54718286 -0.31536582 -0.34800413
-0.29928055 -0.29470846 -0.22394274 -0.44800505 -0.1388096 -0.12545408 -0.24121243 -0.2684278
-0.1424611 -0.5405284 -0.15840898 0.0061135795 -0.36728963 -0.35169056 -0.19241618 -0.6581609
-0.3521013 -0.31040707 -0.37257534 -0.072391056 -0.40686 -0.4131175 -0.21853213 -0.2188131
0.03944774 -0.42472896 -0.8107575 -0.04011564 0.09791358 -0.31966347 -0.3230264 0.14210393
-0.41013727 -0.1358328 -0.18135688 -0.048609264 -0.14701916 0.1299203 -0.32058713 -0.4989304
-0.6385607 -0.57689923 -0.2793341 -0.41057524 -0.3077623 -0.31383204 -0.34839734 -0.21315028
-0.11291063 -0.27198842 -0.25930616 -0.29061782 -0.46880078 -0.18695296 -0.20617214 -0.41369563
-0.29308566 -0.14543213 -0.2546328 -0.07223659 -0.20486267 -0.23572826 0.3624427 -0.516604
-0.3789883 -0.38303992 -0.17960286 0.29179013 -0.4373715 -0.38391745 -0.36289778 -0.084207095
-0.41029254 -0.42865467 -0.46226916 -0.25173506 -0.3409714 -0.29735994 -0.18854639 -0.17266224
-0.47007552 -0.20420362 0.20373124 0.055025924 -0.28509212 0.051170807 -0.5589823 -0.1829904
-0.43275094 -0.20978919 -0.43629074 -0.1292996 -0.16028523 -0.42537653 -0.13253112 -0.350945
-0.4218287 -0.14451182 0.06040278 -0.22074023 -0.024092715 -0.3919463 -0.130748 -0.3157122
-0.20384628 -0.42710915 -0.14383923 -0.21494745 -0.49152365 -0.38736838 -0.24521278 -0.29255715
-0.39588392 -0.36825055 -0.40674347 -0.20257364 -0.094963625 -0.116744414 -0.25383854 -0.6463761
-0.2800111 -0.31854844 -0.37997693 -0.30414188 -0.37685993 -0.21814308 -0.16609235 -0.16019776
-0.30749372 -0.2336009 -0.26700783 -0.355127 -0.25833607 -0.079436824 -0.08728278 -0.21891248

gen.2.weight f4 [784, 256]
00000000: 7e9d 54bb 9e32 cebe d708 fdbd a35a 703d
00000010: 241a 11bf 304d 17bd a678 583c 5a60 653e
00000020: 2e20 40bd 1bd9 99be ebec c33e 3db0 3a3d
00000030: 6798 ea3c 7cb3 c8bd 6609 02bf df43 3abe
00000040: 39be 803e 25a6 f7be e857 9abc 41e2 e8be
00000050: d9d3 09bd d952 e63a f756 4abf 6493 32be
00000060: 3f00 69bf 8ab6 663e b9ae cc3d 41a7 3fbe
00000070: ee7f b9be 3d44 a93e 01a6 78be f7df 20bf
00000080: 6ddf a2be b18f a2be d09d 07bf ce1f fa3d
00000090: c98b acbe 1362 96bd f83e 50be 109b 09bd
000000a0: 6753 603e b376 4cbe 7bac b7bc b905 c1bd
000000b0: 1d0a a3be 2c6e 8dbe 5705 0bbd cb37 a3be
000000c0: c583 b8be a814 babe 1258 bd3e 688f 8b3e
000000d0: c7f8 7ebe 1169 2d3e b4fc fabe 17b8 8dbe
000000e0: c702 19bf b22e a1be 21c5 08be fd68 9dbe
000000f0: f34a e0be 3429 15be 2b27 583e 715f 7ebe
00000100: 08b2 ca3d 1a9f 4dbe 7f48 acbe e5ad dfbe
00000110: 2a13 97be 29e9 87bd 8e81 27bf 91fb 893e
00000120: f089 7ebe 0b3e bdbd 5ab2 f8be 1bcc 9d3e
00000130: f827 d8be d3f0 80be 7299 33bf 0912 25bf
00000140: 9e37 4abe 9abe 86bd ec28 22bf 115a 41bd
00000150: 4d24 d63e a306 aa3b b810 12bf abc6 91be
00000160: 9628 dabe 9422 103c ff42 8bbc 6edd 5b3c
00000170: 1946 783c 2e1c e7be 86e8 e53e 2a38 c8be
00000180: 807f 6cbd 22ef 123e 8e80 43bf 41e2 b3be
00000190: c43f b8bd f031 193d f066 c13d e587 76bd
000001a0: dde4 3bbe 4c0e 903e 73ed 863e d8cb 403e
000001b0: 89ed bcbe 83e7 3e3e 2cf8 e2bd 430b 1dbe
000001c0: aa74 20bf cfd4 20be b2d3 a6be 92af 77be
000001d0: f913 d4bd e614 65be e535 8d3d f4c4 9dbd
000001e0: c7b3 87be f1c2 d7be aa88 4fbd 108f 973e
000001f0: ebbb 9f3d ce00 2abe b68d 883e 89b9 56be
00000200: 9fe0 313e ebf2 96bd 9137 86be cc93 54be
00000210: 7c0d 33bf 5713 613e d1c4 acbe daa3 333f
00000220: d364 c4be 48f2 10be ae56 4abd 590e ddbc
00000230: add4 6dbd ff2b 803e 8074 b9be e6fc 15bd
00000240: ee5d 3f3e 391c 183e 2133 043e 3736 e23d
00000250: bd26 6dbe c02f b4bd b408 0cbe f2ab a1be
00000260: c9c7 0bbe 8d6c 36bf 0bac fabb 786a b1be
00000270: 8616 a1be d955 0ebd 3946 58be 44e3 243c
00000280: fd69 d8bb 9497 4c3e 52d7 55be d761 383e
00000290: 5268 e93e 4a2c 5e3d 080a 4dbc 6913 f9be
000002a0: 4fb2 17be 7b71 d5be 25c1 733e 943b 953e
000002b0: 1c64 f5be 53e1 0fbf 5868 08bc 91d6 61be
000002c0: d249 d23c f488 9cbd 7baa e6bd 8f25 863d
000002d0: e988 403e 75a8 fb3d fa86 933d 7a90 98be
000002e0: 26c7 57bf 31f2 fdbe 9435 80bc b64e debe
000002f0: c1b7 223e a21f 8abe 348f 3abe e73b 03be
00000300: d543 64be f790 9fbe 37b8 aa3d 1862 64be
00000310: db5c 51bf 0d0f a93e d220 3abf 225b 753d
00000320: 4b7b d53e 4d65 58be 03bd 083d 6f49 babe
00000330: aab5 1cbf a727 75bd ca00 113e bce6 bbbe
00000340: 9764 dc3e 77a5 dcbd faf8 133e 3e11 cbbe
00000350: 21e0 8cbe a5ae 48be 8764 35bf 08d6 163e
00000360: 716d 8f3d e96e 9a3d 6b73 c2bd 3495 223d
00000370: 7fe2 c4be c9f3 14bf bef2 5abf 94a8 833e
00000380: 45b0 b03d 5ed0 aabd b4f3 6abf 3e86 4f3e
00000390: ae12 a6be 83bb 0cbe dcd9 e7be 4a4f 6c3e
000003a0: aa44 1cbd 41b5 643f 04a8 acbe 1983 30bf
000003b0: 6820 11be 55ec 1ebc 17f8 293e eddf 53bd
000003c0: 63e1 1d3c 2f71 49be b9a3 eebd 9e57 633d
000003d0: 5060 11be 30c0 3c3e fd82 a4be 10c4 36bf
000003e0: 6dd1 35bf 0afb 213e 1964 10be 96bc b5bd
000003f0: eaaa 17bf 5e28 aabe 89b0 5bbe 3221 b4be
-0.0032442505 -0.40272993 -0.12355202 0.058680188 -0.5668051 -0.036938846 0.013212359 0.22400036
-0.04690569 -0.3004845 0.38266692 0.04557823 0.028637124 -0.09799859 -0.5079559 -0.18189953
0.25145128 -0.48368946 -0.018840745 -0.45485118 -0.0336493 0.0017572298 -0.7903895 -0.17439038
-0.91016 0.2253057 0.09994263 -0.18716146 -0.36230415 0.33059874 -0.24282075 -0.62841743
-0.31811085 -0.31750253 -0.5297518 0.122130975 -0.33700398 -0.07342925 -0.2033652 -0.033595145
0.21906815 -0.19967155 -0.022421112 -0.0942492 -0.31843653 -0.27623117 -0.03394064 -0.31878504
-0.36038032 -0.36343884 0.36981255 0.27257848 -0.24899589 0.16934611 -0.49020922 -0.27679512
-0.5976986 -0.31480938 -0.13356449 -0.30744162 -0.43807182 -0.14566499 0.21108691 -0.24841096
0.09897238 -0.20080224 -0.3364906 -0.43687358 -0.2950681 -0.06636269 -0.6543206 0.26949742
-0.24857306 -0.092403494 -0.4857357 0.30819783 -0.42217994 -0.25183734 -0.70156014 -0.64480644
-0.19747779 -0.06579323 -0.6334369 -0.047205035 0.4182457 0.0051887794 -0.5705676 -0.28471884
-0.4260909 0.008797307 -0.01699972 0.013419492 0.015153431 -0.45138687 0.44903964 -0.3910535
-0.05773878 0.14349034 -0.76368034 -0.35133556 -0.08996537 0.03740114 0.09443462 -0.060188193
-0.18349023 0.28135908 0.26353034 0.1882776 -0.36899975 0.18643002 -0.11082491 -0.15336327
-0.62678015 -0.1570618 -0.32583386 -0.24188069 -0.10355372 -0.22371253 0.06895045 -0.077035815
-0.26504347 -0.42140916 -0.050667442 0.29601336 0.077995144 -0.1660187 0.26670617 -0.20969214
0.17370842 -0.07370552 -0.2621427 -0.20759505 -0.6994245 0.21980034 -0.3374391 0.7017189
-0.38358173 -0.14154923 -0.04939907 -0.02698438 -0.05806415 0.25033566 -0.36221695 -0.036618136
0.18688175 0.14854516 0.12910129 0.11045497 -0.23159309 -0.0879817 -0.13675195 -0.31576496
-0.1365043 -0.71259385 -0.0076499037 -0.34651542 -0.31462497 -0.03474984 -0.21120538 0.01006395
-0.0066044317 0.19979697 -0.2088292 0.18006073 0.45587403 0.054241456 -0.012514599 -0.4864762
-0.14814113 -0.4168814 0.23804148 0.29147017 -0.4792794 -0.5620319 -0.008325659 -0.22054507
0.025669966 -0.07643309 -0.11262985 0.065501325 0.18802227 0.1228799 0.07203479 -0.29797727
-0.8428825 -0.4959884 -0.015650548 -0.43419427 0.15890409 -0.2697726 -0.1821869 -0.1281582
-0.22291501 -0.31165287 0.083359174 -0.22303045 -0.8178231 0.33019295 -0.7270633 0.059901364
0.41695628 -0.21132393 0.03338338 -0.3638415 -0.612147 -0.05985227 0.14160457 -0.36699474
0.43045494 -0.107737474 0.14450446 -0.39661592 -0.27514747 -0.19597872 -0.7085652 0.14730084
0.07003296 0.07540686 -0.094946705 0.039693072 -0.38454053 -0.58184487 -0.85526645 0.25714552
0.08627371 -0.08340524 -0.9177811 0.20266053 -0.32436126 -0.13743405 -0.452834 0.23077121
-0.03815142 0.8933907 -0.33721936 -0.6895004 -0.14172518 -0.009699901 0.16598545 -0.051727224
0.009636256 -0.19672082 -0.11652321 0.05550348 -0.14196897 0.18432689 -0.32131186 -0.7139292
-0.71022683 0.1581842 -0.14100684 -0.088738605 -0.5924517 -0.33233923 -0.21454062 -0.35181576

gen.2.bias f4 [784]
00000000: 6d50 9abe d244 90be de17 02bf b923 7bbe
00000010: 5ff8 bdbe 388a e8be a7b3 06bf 5454 c4be
00000020: bcb1 b2be 588f c7be a2dc 9dbe 20fc d7be
00000030: 23cb aabe 89bf abbe f753 eabe a83c a6be
00000040: 25bb 03bf 5215 d4be 63f7 5fbe 6ec8 d3be
00000050: e221 d6be 272d 77be 51ee 88be a26f 51be
00000060: 2e4a c3be 33fd a4be ea89 d0be edf1 eabe
00000070: 0447 dfbe 0c65 e4be 50f0 b3be c14f c3be
00000080: bc0c 2abf b5ca 12bf 65eb efbe 4a9d 8cbe
00000090: 1374 d9be 5dde adbe 9b41 b1be f162 b4be
000000a0: 72f4 b2be 3356 7dbe cb32 a6be b873 b8be
000000b0: 989f 00bf 1363 93be 6e2d d4be 30ed 0cbf
000000c0: 18ee f6be ab7c 9bbe 416e 3fbe b335 e2be
000000d0: b1f9 c1be 91e6 d5be 9c0c 08bf 3b3e d7be
000000e0: 4d38 efbe b862 9cbe 6c5d babe 636d 2dbf
000000f0: 301a bfbe 1e63 0cbf 171f e2be e84f cdbe
00000100: b82d a7bd 81d4 dabe 1213 d1be 9ed9 bebe
00000110: cc80 0abf e158 87be c542 bfbe d60c e6be
00000120: 2afe a4be ed44 07bf 2ae8 0abf 0388 a5be
00000130: afd7 12bf 09b2 d5be 085f bbbe 16d5 e7be
00000140: dff7 c4be 6f78 0bbf 158a 20be 271c 2cbf
00000150: 1a2d a9be a415 c3be c2d2 debe b260 92be
00000160: 4c87 90be 12a1 bfbe 7c67 a9be 5dc8 e7be
00000170: 59d1 a7bd 61d3 bfbe 6643 91be d6df cdbe
00000180: 827c b8be 2de0 dfbe b2ca 7ebe 7219 dabe
00000190: f00c e8be 29e2 0fbf 230d 9ebe 88fe aabe
000001a0: 63f7 e7be e8ba 59be e40a 94be 7632 86be
000001b0: e433 cdbe b542 afbe 067b eebe 7d33 e4be
000001c0: d3d6 4fbe 7449 d6be 08a0 aabe 53ca dcbe
000001d0: 79fe efbe 0b07 ddbe 9751 adbe 54bc ccbe
000001e0: 51c7 86be 4fdd bdbe 7e23 02bf 5c5d d4be
000001f0: b785 bbbe eecb 8fbe 1251 55be 6e6f 76be
00000200: af92 8abe 5a78 afbe ec43 8bbe 9a53 d5be
00000210: a933 bfbe 7908 e0be 7e2c 93be 6668 70be
00000220: ed1d 18be 71a6 b3be d27c 7fbe b145 bebe
00000230: 3036 d9be 2f1b c1be 1d4e c1be 64b7 c0be
00000240: 171d b0be ffc9 f0be a54c bfbe 8c44 bfbe
00000250: 9d23 d1be c65e a0be 9084 8bbe a245 68be
00000260: cb3c 18be 1ceb 32be 3912 76bd e399 21be
00000270: ab6b 2cbe 6df7 9fbd c53e 04be 1b94 edbd
00000280: b3a2 45be 033d c5be 25f1 c0be 826f c6be
00000290: fa7f fbbe a1ee a6be 3ff6 b4be 020a e5be
000002a0: fc53 fabe e016 c7be 9d61 98be 6eb3 0cbf
000002b0: 87e3 dfbe 7e4f d7be 176b 08bf df3a b3be
000002c0: a33f 05be 5ce8 3fbe 0c85 b4bd 0386 05be
000002d0: d4ef 2abd f959 313d 87f7 2ebd e1e7 053d
000002e0: 18c9 afbd c79a b23c 43f0 3fbd 88cc 3fbd
000002f0: 1ab0 40be c6d0 f6bd 98a5 adbe 20c5 8ebe
00000300: d0e6 dfbe 85f3 b7be 9b6b e0be c004 dcbe
00000310: 4c83 c4be 74de a3be 7445 debe 7497 bfbe
00000320: 498a 17bf 401d c2be 8061 b4be b71d bcbe
00000330: fea6 76be 1bad 04be 3943 10be 334f a8bd
00000340: edff a63b e98d 94bd 6a0b 923b d11a 4cbd
00000350: f32f 2e3d 40ed 8fba e5b6 883d b565 553d
00000360: 10fc 99bd 37e1 38be 30b3 87be a1f5 25be
00000370: 1012 bcbe 6f22 c8be 9307 08be cbe4 03bf
00000380: 110e 93be 181f 09bf db1a 9ebe 2487 cabe
00000390: d850 f6be 4a52 f8be 3210 f0be 6efa adbe
000003a0: a714 8abe 72f2 93bd 2775 c3bd 4232 e1bd
000003b0: fafa 01bc c2b7 883c 6ecb 21bd 48d7 0cbd
000003c0: 75ec f1bd 6f53 11bd cd73 3fbd 7ad3 113d
000003d0: c0c9 e4bc 720a 1dbd c7e8 a3be 484d c0be
000003e0: f432 afbe adc0 c3be 95e5 8dbe 63a8 24be
000003f0: 17b7 cfbe 11f8 a8be 337a e7be a614 e8be
-0.30139485 -0.28177506 -0.5081767 -0.24525346 -0.37103555 -0.45417953 -0.5261788 -0.38345587
-0.34901226 -0.3897655 -0.30832392 -0.42184544 -0.33358106 -0.33544567 -0.45767185 -0.32468152
-0.51457435 -0.41422516 -0.21871714 -0.41363853 -0.41822726 -0.24138318 -0.2674432 -0.20452741
-0.38142532 -0.32224426 -0.4073022 -0.458877 -0.43608868 -0.44608343 -0.3514428 -0.38146785
-0.6642568 -0.57340556 -0.4685928 -0.27463752 -0.4247137 -0.33958712 -0.34620366 -0.35231736
-0.34952122 -0.24739914 -0.32460627 -0.36025786 -0.5024352 -0.28786525 -0.4144091 -0.5504942
-0.48228526 -0.30368552 -0.18694402 -0.44181594 -0.37885812 -0.4177747 -0.5314424 -0.42039666
-0.46722642 -0.30544066 -0.363994 -0.67745036 -0.37324667 -0.5483874 -0.44164345 -0.40100026
-0.08163017 -0.42740253 -0.40834862 -0.37275404 -0.5410278 -0.26434997 -0.3735563 -0.44931668
-0.32225162 -0.5283955 -0.54260504 -0.3233033 -0.5736036 -0.41737393 -0.3659594 -0.4527976
-0.3847036 -0.5448064 -0.15677674 -0.6723046 -0.33042222 -0.38102448 -0.4352017 -0.28589398
-0.28228223 -0.37427574 -0.33086765 -0.45270053 -0.08194227 -0.37465957 -0.28371733 -0.40209836
-0.36032492 -0.4372572 -0.2488201 -0.42597538 -0.4532237 -0.5620447 -0.30869398 -0.33397317
-0.4530593 -0.21262705 -0.2891456 -0.26210374 -0.40078652 -0.3423058 -0.46578234 -0.44570532
-0.20296793 -0.41852915 -0.3332522 -0.4312311 -0.46873835 -0.43169436 -0.3385131 -0.39987433
-0.2632394 -0.37082908 -0.50835407 -0.41477478 -0.36625454 -0.28085274 -0.20831707 -0.24065945
-0.27065036 -0.34271508 -0.27200258 -0.41665345 -0.373441 -0.43756464 -0.28744882 -0.23477325
-0.14855166 -0.35087922 -0.24949959 -0.37162545 -0.42424154 -0.37716052 -0.37754908 -0.37639916
-0.34397194 -0.4702911 -0.37363163 -0.37356985 -0.40847483 -0.31322306 -0.27249575 -0.22682813
-0.1486694 -0.174725 -0.060075972 -0.1578136 -0.16837947 -0.078108646 -0.1291457 -0.116005145
-0.19300346 -0.3852311 -0.3768398 -0.3875695 -0.49121076 -0.32603934 -0.3534412 -0.44734198
-0.488922 -0.3888464 -0.29761973 -0.5496129 -0.43728277 -0.42052835 -0.53288406 -0.35005853
-0.13012557 -0.18740982 -0.08814439 -0.13039403 -0.041732624 0.043298695 -0.04271653 0.03269184
-0.085832775 0.02180232 -0.04685999 -0.046825916 -0.18817177 -0.12051539 -0.339154 -0.2788477
-0.43730783 -0.35927978 -0.43832096 -0.42972374 -0.38381422 -0.32005656 -0.43412364 -0.37420237
-0.5919538 -0.3791294 -0.35230637 -0.3674142 -0.2408714 -0.1295666 -0.14088143 -0.08218231
0.0050964267 -0.0725363 0.004456927 -0.04983026 0.042526197 -0.001098074 0.06675509 0.05209895
-0.0751878 -0.18054663 -0.26503897 -0.16206981 -0.3673253 -0.3908877 -0.1328414 -0.51520985
-0.2872167 -0.5356307 -0.30879864 -0.3955623 -0.48108554 -0.48500282 -0.46887356 -0.33980125
-0.2696888 -0.07223977 -0.095438294 -0.10995914 -0.007933373 0.016689185 -0.039500646 -0.034384996
-0.11812679 -0.03547996 -0.046741296 0.03560207 -0.027928233 -0.03834004 -0.32013533 -0.3755896
-0.34218562 -0.38232937 -0.2771422 -0.1607986 -0.40569374 -0.3300176 -0.45210418 -0.45328254
